trained_models/adda.pt (torch_old, 91029 bytes, 8 tensors)

feature_extractor.0.weight f4 [10, 3, 5, 5]
000000 a6 c8 9e bd 31 d0 85 3d 7c e5 9f be fe 9e 84 be
       -0.077531144 0.0653385 -0.3122977 -0.2590255
000010 b5 73 1d bc 70 7e d9 3d 0d 9f a6 bd ce 16 ad be
       -0.009610106 0.10619819 -0.08135805 -0.3380646
000020 b2 3c 73 3e c5 09 bd 3e 11 cf 3f 3e d2 5d fe be
       0.23753622 0.36921516 0.18731333 -0.49680954
000030 cf 93 69 3e 24 fe 42 3e c2 dd df 3d 97 0f a5 3d
       0.22810291 0.1904226 0.10930969 0.08059614
000040 6d 20 03 be 10 90 82 3e 09 9f 04 be 1d 8d c2 3d
       -0.12805338 0.25500536 -0.12951292 0.094995715
000050 45 a3 11 3d 11 bb 1c 3c 80 0b 36 3d 97 59 4f bd
       0.035556097 0.0095660845 0.04444456 -0.05062255
000060 f3 25 87 3c f8 de 2a 3d 31 85 4f 3e 1d 9d 93 3d
       0.016497588 0.041716546 0.20265652 0.07207701
000070 17 84 3b be df bf 79 be 8a a0 27 3e 5a 5c 5d 3b
       -0.18312107 -0.243896 0.16369835 0.003377697
000080 ab 28 b9 be 0d f7 6e bd 47 b9 5d 3e 4c ce 36 3e
       -0.3616384 -0.058341075 0.21652709 0.17852134
000090 75 0d bc be a8 36 22 3e ea 37 7d bd d4 bc 10 be
       -0.36729017 0.15841162 -0.061820902 -0.14134532
0000a0 b8 17 94 3c ed 6c 45 be 48 75 35 3e c4 79 e4 bd
       0.018077716 -0.19279833 0.1772052 -0.111560374
0000b0 06 1c bf 3d ea dd f9 bd 9c 39 d8 bd 12 4e 02 bd
       0.09331517 -0.1220053 -0.10557863 -0.031812735
0000c0 db c9 5b be 91 6d 1e 3c a2 5f e9 bc 58 47 fa 3d
       -0.2146372 0.009669677 -0.028487984 0.12220639
0000d0 a8 ee 14 3d d9 c1 aa 3c 6d 2f 77 be 95 5d eb 3d
       0.036360413 0.020844387 -0.24139185 0.11492459
0000e0 67 2d ad bd 5c 0f 0f be f2 cb f9 bc 3a 42 e0 3d
       -0.084559254 -0.13970703 -0.030492757 0.10950132
0000f0 97 bf 4d 3d 62 c0 6f be 79 eb 2d 3e f1 10 b1 bd
       0.050231542 -0.23413232 0.16984357 -0.086458094
000100 b5 75 8d 3d 94 37 6b 3d a5 c7 0c be e3 2f 90 3d
       0.069072165 0.05742605 -0.13748033 0.07040384
000110 72 28 70 bd cb b8 14 3e b9 e2 23 3c ff 47 5c 3c
       -0.05863232 0.14523618 0.010002785 0.0134449
000120 fc bd 10 3c 81 af cd bd bf 90 bf 3c 2d cb cb 3d
       0.008834358 -0.1004324 0.02338445 0.09950862
000130 40 8f fc 3c 41 f9 e1 bd bc cb 98 be fb f6 62 3d
       0.030830026 -0.110338695 -0.29842937 0.05541132
000140 b5 95 3b 3d d9 9a 00 3e ed e9 61 3e df de ee bd
       0.04579707 0.1255907 0.22061892 -0.11663603
000150 55 f3 20 3c 1f 87 53 be bf 84 f8 3d 16 6b 5f bc
       0.00982364 -0.20657013 0.12134694 -0.013636371
000160 7b a0 29 be 49 6b f1 bc 4a 91 a1 3d 54 b4 da bb
       -0.16565125 -0.029470103 0.0788904 -0.006674329
000170 32 58 1a be bd ae 98 3c 8c 11 3a 3e e0 c3 98 3c
       -0.15072706 0.01863801 0.18170756 0.018648088
000180 cb cb 89 3d 0d 54 38 3e cd 93 43 3e 26 27 6e 3e
       0.067283235 0.18000813 0.1909935 0.23257121
000190 cf db a1 3d 48 12 ef 38 3f c2 8b bd 3b 8a 7f be
       0.07903253 0.00011399813 -0.06824159 -0.24955074
0001a0 8e 6e 05 3e ed b3 19 bc 2b cf 1e 3e 31 4f 35 3e
       0.13030455 -0.009381277 0.15508716 0.1770599
0001b0 32 23 b2 bd c8 9a 60 3d fd 25 77 be db 1d 4d 3d
       -0.08698119 0.05483511 -0.24135585 0.0500773
0001c0 56 e3 8f bd a9 e9 1b 3d bf b0 d8 bd 86 85 10 be
       -0.07025783 0.038064633 -0.10580587 -0.14113435
0001d0 39 ab 73 3d fe a9 95 be 53 c7 7e be b1 f1 ef 3d
       0.059489463 -0.29231256 -0.24880724 0.11716021
0001e0 5c 0f d7 3d b8 60 a4 3d 39 f5 10 be 53 c3 66 3c
       0.105009764 0.0802626 -0.14156045 0.014084655
0001f0 c8 be 4d bd 48 fa 04 3e 8d f8 21 3c b9 c9 7b 3d
       -0.05023077 0.129861 0.009885919 0.061471675
000200 a0 eb e7 bd b0 d1 c8 3d 52 7d 2a be 43 20 07 3d
       -0.11324239 0.0980562 -0.16649368 0.03298975
000210 7e b2 a9 3d f6 d5 39 3d e3 e8 d0 bc c1 02 8d be
       0.08285998 0.045370065 -0.025501674 -0.27541164
000220 63 b2 7c 3d f1 e0 a5 3d 95 45 b9 3c 77 af a1 3d
       0.06169356 0.08099545 0.022616187 0.078947954
000230 3e 43 10 bd 9b be 59 3d c2 e1 da bd 49 79 8d be
       -0.035220377 0.05316029 -0.10687591 -0.27631596
000240 dd 5f 95 bd d6 d2 04 3d 4c 9d ca bc aa 94 c0 3c
       -0.07293675 0.03242763 -0.024733208 0.023508389
000250 ca 92 0e 3e 89 4d 8f 3d 1b 60 ce 3d de 78 2b be
       0.13923183 0.069972105 0.100769244 -0.16745326
000260 36 91 64 bb 20 1e 66 bd 21 86 f9 bb 58 0f 87 be
       -0.0034876592 -0.056181073 -0.0076148664 -0.26378894
000270 3f 10 16 be bb e2 cb 3d ee d2 e6 3d c0 b4 96 3d
       -0.14654635 0.09955355 0.112707004 0.07358694
000280 3c b3 1e bd 6e 77 f8 3d ef 04 40 39 4f e2 27 3c
       -0.03874515 0.121321544 0.00018312385 0.010246827
000290 7f dc e8 bd a7 66 bc 3d a5 1c c6 bb 8e 74 20 be
       -0.11370181 0.09199267 -0.006045895 -0.15669462
0002a0 bc 58 4e be 6b 0b 33 be 02 87 bb bd ef 06 2a be
       -0.20151037 -0.17484824 -0.0915661 -0.16604207
0002b0 d7 1a 30 be bc fb 0b be 91 8d b0 3b 5f 90 ac 3d
       -0.17197739 -0.13670248 0.00538797 0.08425974
0002c0 c3 83 0c be db 66 03 be c0 9d 1c be 7a de 1c bd
       -0.13722138 -0.12832205 -0.15294552 -0.038298108
0002d0 d9 16 b0 be a0 62 3a be db 16 e7 bd 44 13 d7 3c
       -0.3439243 -0.18201685 -0.11283656 0.026254304
0002e0 36 e9 9a bc 9a 86 3e bd 9b 94 09 bd 28 e5 3d 3e
       -0.018910032 -0.046515085 -0.033588987 0.18544447
0002f0 ff 0a 1b 3b 9e 01 a3 bd d2 1b d5 3d 17 6f 1b 3e
       0.0023657677 -0.07959293 0.10405697 0.15179096
000300 15 22 0c be ba 1a 05 be 75 db 19 be 45 18 a3 bd
       -0.13684876 -0.12998477 -0.15025122 -0.079636134
000310 04 05 63 be 3f 42 a8 bd 1e 40 f7 3c 0c 80 4e 3d
       -0.22169882 -0.082157604 0.03018194 0.050415084
000320 30 2f 5f bd 60 f8 1d be 18 86 2e be f5 34 e8 3b
       -0.05448836 -0.15426779 -0.1704334 0.007086391
000330 5d c2 fd 3c a6 81 ac be 02 e9 88 be e3 cf 7c 3d
       0.030976469 -0.33692664 -0.2674027 0.061721694
000340 7b a3 1e bd 66 d9 9e bd e8 f2 51 be 2d 53 b0 3c
       -0.038730126 -0.07756309 -0.20502818 0.021524036
000350 0b 31 0a 3e 2d 0e c5 bd 30 bd 7e be d2 ed b3 3d
       0.13495271 -0.096218444 -0.24876857 0.08785595
000360 0b 0f bf 3d c5 b8 2a 3d 22 c4 37 be 10 60 52 be
       0.09329041 0.041680116 -0.17945912 -0.20544457
000370 c8 ce 73 be 3a 66 00 be f4 fb 34 be 2d 9e d6 bd
       -0.2380935 -0.12538996 -0.17674237 -0.104793884
000380 97 4f 84 3b 60 1f 70 be 37 60 ab 3d a2 9f ac 3e
       0.004037808 -0.23449469 0.08367961 0.3371554
000390 b4 65 a2 3e 4e 64 72 3e 75 87 e8 3d 45 59 8f be
       0.31718218 0.23671076 0.113539614 -0.27997795
0003a0 70 d3 f9 be 9a 21 a8 be fb b7 5e bd e2 e4 d7 3d
       -0.48794127 -0.32838136 -0.054374676 0.10541703
0003b0 0d 4b 76 3d e0 31 9a 3d e5 1e 91 3d 93 92 07 be
       0.060130168 0.07529044 0.07085971 -0.13239507
0003c0 b6 0c 3d 3e e0 59 06 3e b3 18 09 bd c8 40 f4 3d
       0.1846188 0.13120222 -0.03347082 0.119264185
0003d0 4a 0b 1f 3d 42 62 32 bd de 17 d3 bd 6a 2d f2 bc
       0.038829125 -0.043550737 -0.10307287 -0.02956267
0003e0 36 e0 a4 3d 21 b2 84 3d ae 3f 93 be e2 4e 33 3d
       0.08050577 0.06479288 -0.2875952 0.0437764
0003f0 93 68 84 3e b5 e2 3f 3e 19 1d 1c 3e 78 13 46 bd
       0.25861034 0.18738826 0.15245475 -0.04835841

feature_extractor.0.bias f4 [10]
000000 de 6a 01 3d 3c bb 21 be 43 cd 93 be 55 b5 02 3d
       0.031596057 -0.1579408 -0.2886754 0.031911213
000010 0f 7d 80 3c 89 06 ae bd f7 74 0e bd 34 28 4a bd
       0.015684633 -0.0849734 -0.034779515 -0.049354747
000020 c5 9c 05 be b8 b9 cc bd
       -0.13048084 -0.099963605

feature_extractor.3.weight f4 [20, 10, 5, 5]
000000 5a 3c dc be 89 c0 e0 bd 20 b8 bd bd 0d de 95 3c
       -0.43014795 -0.10974223 -0.09263635 0.018294359
000010 54 1f 43 3d 83 0f 55 be 5f 98 a7 bd bc c5 49 3d
       0.0476373 -0.20806699 -0.08183359 0.04926084
000020 e5 47 9a 3b 20 80 dd bd a8 05 52 3e 42 32 b7 bc
       0.0047082775 -0.108154535 0.2050997 -0.022362832
000030 83 44 ca bd 02 0c 54 be 3c a6 88 3a 70 e7 46 3e
       -0.09876349 -0.20707706 0.0010425518 0.19424224
000040 6b 84 5f 3c ce e6 0a be 99 37 5c bc e1 13 24 3e
       0.013642411 -0.13564608 -0.01344099 0.16023208
000050 bc d6 77 bd 0a e8 b3 3c 1f c2 a8 bd 9e 50 2f 3c
       -0.06050752 0.02196123 -0.08240151 0.010700373
000060 de 69 ec 3d 92 f0 9d be a8 54 e2 bd b5 f8 10 be
       0.1154363 -0.30847603 -0.11051303 -0.14157374
000070 ce c5 10 bd e6 03 44 3e ff 35 14 be d6 ce 90 bd
       -0.03534489 0.19142112 -0.14473723 -0.07070701
000080 2a 06 00 be f3 01 55 3b 27 f9 20 3e d6 51 82 be
       -0.12502351 0.0032502383 0.15720044 -0.2545306
000090 f9 cd f0 bd 3a 7e e4 bd 93 2e 84 3d a8 20 47 3e
       -0.11758036 -0.11156888 0.06454196 0.19446051
0000a0 63 18 6b be f3 69 38 be 29 b7 ab bd 83 c2 0f 3e
       -0.22958522 -0.18009166 -0.083845444 0.14039044
0000b0 93 09 d1 3d e8 6a 89 be 43 1d 3c be 29 27 26 bd
       0.10206904 -0.26839375 -0.18370537 -0.04056469
0000c0 f9 4a d7 3d 70 56 ab 3e e3 24 8e be 4a f7 05 be
       0.10512347 0.33464384 -0.27762517 -0.13082615
0000d0 4e ce 6a bd d2 56 cd 3d 06 ab f2 bc f1 9c 8d be
       -0.057325654 0.10026325 -0.029622566 -0.276588
0000e0 c0 dd 6f be 6b 38 dc bd 8a 42 33 bd b1 3e 69 3d
       -0.23424435 -0.107529484 -0.04376463 0.056944553
0000f0 bb 35 3e be 03 96 99 be a3 4e 99 be 7e f5 35 bd
       -0.18575184 -0.29997262 -0.29942808 -0.044423573
000100 1b 57 ab bd 16 a0 40 be af 6c 68 be 2f a9 4e be
       -0.083662234 -0.18811068 -0.2269771 -0.20181726
000110 07 cd 58 be 4b 44 7f be 68 3b 60 be 85 e2 92 be
       -0.21171962 -0.24928395 -0.21897662 -0.28688446
000120 71 e0 ab be 04 75 8a bd b1 2b 21 be fb c0 48 3d
       -0.33569673 -0.067606 -0.15739323 0.049012166
000130 7d 96 0e be 56 ec 9f bd 5b 62 cc bd 63 16 3e 3e
       -0.13924594 -0.078087494 -0.09979697 0.18563227
000140 59 ed 6c 3e 82 17 fd 3d 21 e2 ee 3d 9b 70 9c 3d
       0.23137416 0.123579994 0.116642244 0.07638665
000150 0e ec c6 3e 6b c9 e0 3d 58 75 d9 3d b5 19 cb 3d
       0.3885197 0.109759174 0.10618085 0.099170126
000160 ad 85 90 3e 7a d7 d9 3e b8 77 d9 bc 19 e4 13 3e
       0.28226987 0.42547208 -0.026546344 0.14442481
000170 be 19 04 3e 05 46 24 3e e8 d1 47 bd a5 73 75 bd
       0.12900445 0.16042335 -0.048784167 -0.05992474
000180 29 f7 51 bd e1 23 08 ba e0 8f 1e be c7 d9 9c be
       -0.0512611 -0.00051933347 -0.15484571 -0.306349
000190 27 fb d7 be 32 51 3d be 79 6b 43 be 36 79 9e be
       -0.42183802 -0.18488005 -0.19083966 -0.30951852
0001a0 c9 d6 c9 be 39 aa ab bd d6 65 0a 3d ac 3e 1f 3d
       -0.3942168 -0.08382077 0.033788525 0.038878128
0001b0 4e 9a e3 bd a1 7b 01 be 5c 31 41 bb 45 e7 7a 3d
       -0.11113416 -0.12644817 -0.0029478883 0.061255712
0001c0 bc 23 98 3c d7 28 7e be 99 3f 34 be 0e a1 05 3e
       0.018571727 -0.24820267 -0.17602386 0.13049719
0001d0 da 7f d2 3d 26 69 03 bd da df 52 be da 7e 81 bd
       0.10278292 -0.0320827 -0.20593205 -0.06323023
0001e0 4d d1 32 3e 3c 04 7c 3e 8d 20 8b 3d 03 59 01 3e
       0.17462654 0.2461099 0.06793318 0.12631612
0001f0 94 c3 43 3e 31 34 61 3d 52 e9 cb 3c 5d dd 7f 3d
       0.19117576 0.054981414 0.02489153 0.062466968
000200 06 73 8a bd a8 f7 47 bd 53 14 d9 3c 68 af ec 3d
       -0.0676022 -0.048820168 0.02649895 0.115568936
000210 56 67 1c 3e 1a 94 3a 3e 61 0a 51 3e 2b 85 ef 3d
       0.15273795 0.18220559 0.20414115 0.11695322
000220 69 5a 2c bc de 08 15 3e dd b7 a5 3d 2f a9 a1 bd
       -0.010519602 0.14554164 0.0809171 -0.07893597
000230 8f 95 dc 3d 95 a5 14 3e 0b ae 97 3c 10 bc 69 be
       0.107707135 0.1451629 0.018515607 -0.22825646
000240 b6 fc 50 bd 74 26 d5 bd 54 71 e3 bb 05 4f 07 be
       -0.051022254 -0.10407725 -0.006941 -0.13213737
000250 93 03 dc bd 46 88 b8 3e 11 78 ad be e2 4a 08 be
       -0.10742869 0.36041468 -0.33880666 -0.13309816
000260 26 ac c0 3d d9 33 74 3e ae 98 a7 3e 77 62 37 3d
       0.09407835 0.23847903 0.32733673 0.044771638
000270 c2 36 05 3e d2 e5 96 3d 99 e3 9f 3d 1d 9c 6b 3e
       0.1300917 0.073680535 0.07807083 0.23008771
000280 47 13 de 3d 26 e2 c5 bd c6 d4 84 bd 51 c3 39 bd
       0.108435206 -0.09662275 -0.06485896 -0.045352284
000290 cd d4 b5 3d 03 74 a0 bd 52 5b 03 be 3c 5f b0 bd
       0.08878479 -0.078346275 -0.12827805 -0.086119145
0002a0 9e 20 e1 39 88 9a dd 3d 74 c7 8f be 86 87 0c 3c
       0.00042939646 0.1082049 -0.28081858 0.008577233
0002b0 8b 3b 39 3e c9 4f b5 3d e2 9d 63 3d 95 2c 40 be
       0.1808912 0.088531084 0.05557049 -0.18767007
0002c0 c4 7b 97 be 72 44 2d bd e3 5d 23 bd 53 6a 89 3e
       -0.29586613 -0.042301603 -0.03988446 0.2683893
0002d0 99 8e 40 3e 09 df 8f 3c 0d 18 01 3e f6 62 a0 3e
       0.18804397 0.017562406 0.12606831 0.313255
0002e0 c3 48 0b 3f 4d 61 e1 bd eb 2a af 3d e4 27 0a 3e
       0.544079 -0.11004887 0.08553108 0.1349178
0002f0 11 99 8b 3e 73 7d b4 3e 49 af d8 3c 09 e2 bc 3d
       0.27265218 0.3525196 0.02645077 0.092228
000300 06 af 1d 3e b3 b8 e1 3b 66 47 8e bd 66 0a b5 be
       0.15398797 0.006888473 -0.06947212 -0.35359496
000310 02 3e 1e be f5 24 20 be 86 06 5f be 2d f1 0f be
       -0.15453342 -0.15639098 -0.21779832 -0.14056845
000320 d3 54 80 3e 4e 8a b9 3d 1b 2c 59 be f0 32 e2 be
       0.25064716 0.09059583 -0.21208231 -0.44179487
000330 9a 24 aa be fb 68 a9 3e ea d9 50 3e b2 8d a6 3d
       -0.3323105 0.33087906 0.20395628 0.08132495
000340 ab 15 78 bd 3b 07 d0 bc c6 79 bb 3e 33 25 d5 3d
       -0.06056754 -0.025394073 0.36616343 0.10407486
000350 12 a5 25 bd 7b ea ae bd c0 28 7c be 1c 2d bb 3b
       -0.040440626 -0.08540817 -0.2462492 0.0057121646
000360 a9 d1 50 3c 71 f0 fa bd 1e f1 27 be 69 6f c8 be
       0.012745299 -0.12252892 -0.16400573 -0.391475
000370 a0 81 8b be 93 fb 0e be d6 1d a4 bd 10 d9 b6 be
       -0.27247334 -0.13963155 -0.08013503 -0.3571248
000380 7c 2d 02 bf 45 3a 53 be b4 6d 07 3e cb 35 3a 3b
       -0.50850654 -0.20627697 0.13225442 0.002841341
000390 af a9 8e bd 93 be c1 bd b0 43 4b 3e 22 e0 30 3e
       -0.06965958 -0.09460177 0.1985004 0.17273
0003a0 22 c2 5b bd 08 77 13 be 06 c0 68 bd 4c ba 70 3e
       -0.053651936 -0.14400876 -0.056823753 0.23508567
0003b0 0f 72 e5 bc 81 f7 71 be ec 71 0a be c3 30 12 be
       -0.028008489 -0.23629571 -0.1352002 -0.14276414
0003c0 ab b2 48 3e 28 3d d4 bd 9d 76 24 be 28 f7 7a be
       0.19599406 -0.10363227 -0.16060872 -0.24508345
0003d0 94 e6 01 be f1 77 83 bc 94 23 f2 bd 07 5a 1b be
       -0.12685615 -0.016048403 -0.11823192 -0.15171061
0003e0 32 bf 11 be e0 25 1f 3e 73 b2 79 3b 02 67 38 bd
       -0.14233091 0.15541792 0.0038100749 -0.04502011
0003f0 e4 71 f0 bd 8e fa 39 be ff a7 5d 3b 6a 33 ac bd
       -0.11740473 -0.18161985 0.0033822057 -0.08408244

feature_extractor.3.bias f4 [20]
000000 af 29 36 be 28 10 65 3e a9 84 39 be bc 44 e1 be
       -0.17789339 0.22369444 -0.18117012 -0.43997753
000010 5f 8f 89 be 0d 58 95 bc 70 45 ab bd 81 91 04 be
       -0.26867196 -0.018230462 -0.083628535 -0.1294613
000020 c4 b3 2f be ee 9c a6 3e 43 c4 fa be bc 27 d5 be
       -0.17158419 0.32541603 -0.4897786 -0.41631877
000030 ee f4 99 bc 8a 12 e0 bd e1 d0 b7 be c8 d9 b1 3e
       -0.01879355 -0.10941036 -0.3590155 0.34736466
000040 39 de 75 3e 24 65 34 3c 9d fa a0 3e 0a 39 90 3c
       0.24010552 0.011010442 0.31441203 0.017605323

classifier.0.weight f4 [50, 320]
000000 a3 01 71 be b7 75 28 be 2d 97 8c bc 8d e9 c6 3d
       -0.2353578 -0.16451155 -0.01716193 0.09712515
000010 81 88 ca bd d5 b2 30 be f2 d3 0f 3d d6 e6 6b 3e
       -0.09889317 -0.17255719 0.035114236 0.23037276
000020 00 f9 8d bc fe ec e8 bd ac 5d 7c 3e 31 9f bf 3d
       -0.017330647 -0.11373328 0.24645108 0.09356535
000030 8d b5 20 3c bd 03 c1 bd 50 79 a1 bc 64 9f 09 be
       0.00980891 -0.09424541 -0.019711167 -0.13439709
000040 2b 17 8b 3c 2a 44 79 3d 67 c5 ad 3d 7a 62 19 3e
       0.01697882 0.060856022 0.08484917 0.14978972
000050 d8 02 ad bd 7f ca c8 bd 03 ba 25 3d bc 70 b9 3d
       -0.08447808 -0.09804248 0.040460598 0.090547055
000060 81 d6 eb bc bf 45 25 be f0 d9 c9 ba 0c 57 08 bc
       -0.028788807 -0.16139887 -0.0015400033 -0.008321535
000070 cc 72 ab bc 16 44 35 bd 0b 7a ca bd 3a 38 26 3c
       -0.020928763 -0.044254385 -0.09886559 0.010145241
000080 b6 78 52 3d 09 b0 70 bd ff 0f 10 bd 6d 18 2f be
       0.05138465 -0.05876163 -0.035171505 -0.17099161
000090 f9 01 97 3b 38 54 ad bb 11 cd 08 bd 08 46 43 3d
       0.0046083895 -0.0052895807 -0.03339869 0.04767421
0000a0 26 2f e4 3c 0f 60 10 3e cb c4 3e be 0a 1e c5 3c
       0.027854513 0.14099143 -0.18629758 0.024062175
0000b0 37 4a 79 3c e0 4e e3 bd 9e 61 78 bd bc dc 31 3d
       0.015215448 -0.110990286 -0.06063997 0.0434234
0000c0 89 92 0c 3e 9c 4e 22 3e 93 d5 94 3b d4 6e fa 3d
       0.13727774 0.158503 0.0045420616 0.1222817
0000d0 6c 5f 2c 3d 4b b3 8c 3d 2b 35 05 bd 46 00 a7 bd
       0.04208319 0.06870135 -0.032521408 -0.08154349
0000e0 b4 60 84 bd ce 26 6a 3c bf 4b 88 3d 18 9e b7 bd
       -0.06463757 0.014291478 0.066550724 -0.08965701
0000f0 14 45 85 3c 13 03 d3 3d 8d 77 32 3d 8c 33 20 be
       0.01626829 0.10303321 0.043571044 -0.15644664
000100 8f 0e 00 be 47 90 d9 bd 27 d4 e4 bd 56 9d 80 be
       -0.12505554 -0.10623222 -0.11173277 -0.25120038
000110 9f 87 23 3d d5 ae a1 3d 1c 3a 19 3d c9 41 e0 bc
       0.03992426 0.07894675 0.037408933 -0.027375119
000120 30 90 5a bd 29 55 bf 3b 64 31 3d bc b0 34 f9 3b
       -0.053360164 0.0058390093 -0.01154742 0.007605158
000130 72 d9 b1 bd 63 5e b9 3d 81 b7 12 3d a9 7c ee 3d
       -0.086840525 0.09051206 0.035819534 0.11644871
000140 87 e8 41 be 40 f9 ea bd 9d 3f a2 3c 85 74 0e 3c
       -0.18936358 -0.11473322 0.019805724 0.008694773
000150 d9 44 d9 3d f1 84 12 be dd 95 d1 3d fe 40 2c 3e
       0.10608835 -0.14308526 0.10233662 0.16821668
000160 6d 2f b1 bb b9 b7 3c be f2 58 b7 bc f8 89 97 bc
       -0.005407265 -0.1842946 -0.02238128 -0.018498406
000170 41 5e f0 3c db e3 61 bd 90 33 47 bd f4 e4 78 bd
       0.029341819 -0.05514894 -0.04863316 -0.06076522
000180 62 dc d4 bd de 97 94 bd 15 c4 88 3d ae ac 4a 3e
       -0.10393597 -0.07255529 0.06678025 0.19792435
000190 ce b6 45 be 11 2a 8c bd 16 cf b9 3d 6a 95 e8 3d
       -0.19308016 -0.06843961 0.09072702 0.113566235
0001a0 e8 63 ca bd 17 34 62 bd ce 46 80 bc c3 47 d0 3d
       -0.09882337 -0.055225458 -0.015658762 0.101699375
0001b0 27 1a 1d 3d a2 a4 1d be 53 84 14 bd f2 0d fe bd
       0.03835502 -0.15394834 -0.036259007 -0.124050036
0001c0 20 45 13 be 22 e6 c5 bd 23 aa 29 3e d5 53 d0 3d
       -0.14381838 -0.09663035 0.16568808 0.1017224
0001d0 40 0d a1 bd 97 7a d7 3b bd 36 64 bd 80 08 82 3e
       -0.07863855 0.006575893 -0.055716265 0.2539711
0001e0 11 5f 12 3d b4 cb 3d be 22 0c bf bd 77 03 34 3c
       0.035735194 -0.18534738 -0.09328486 0.010987154
0001f0 67 de 35 ba 93 11 d4 bc f5 96 d5 bd 02 ed 0e be
       -0.00069377426 -0.025887286 -0.104291834 -0.13957599
000200 74 33 90 be 1f b0 33 be 5f 04 c5 bd 69 1f 92 bd
       -0.28164256 -0.17547654 -0.09619974 -0.07134897
000210 44 ca 4c be 09 47 ca 3b ce 00 ae 3d e6 34 7c 3e
       -0.19999033 0.006173019 0.08496247 0.24629554
000220 06 74 23 bd f9 2f 8e bc d5 c8 9f 3c ef 1d 4b 3e
       -0.03990557 -0.01735686 0.019504944 0.19835638
000230 dc 8c 61 bd eb 88 a2 bd d1 e8 9e 3d 8e 21 9a bc
       -0.055065975 -0.07936271 0.0775925 -0.018814828
000240 3b bb 51 3c 5d e8 74 bd 0e 23 a8 3c f3 01 4b 3e
       0.012800987 -0.05979191 0.020524528 0.19824962
000250 68 71 c1 bd 14 4d fe 3c 6f 16 6b 3d 95 16 8b bd
       -0.09445459 0.031042613 0.05739444 -0.067914166
000260 05 89 65 3b d1 0b 7f bc e3 cc 23 bd 14 3a e3 bd
       0.0035024297 -0.015566782 -0.039990317 -0.11095062
000270 39 86 3b ba 68 97 0b 3d d7 a7 f2 bd 66 4e 56 be
       -0.00071534846 0.03407994 -0.11848419 -0.20928344
000280 28 bd c9 bd a2 8b 91 be 95 5e 20 be 7e 6b 93 3d
       -0.09850532 -0.28426844 -0.1566108 0.07198237
000290 0a ce 05 3e 7b b1 13 bd a7 f3 ea bd 84 da f5 3c
       0.13066879 -0.03605793 -0.11472254 0.030011423
0002a0 c4 f5 f6 3d 31 b4 85 3d bf 1d 6f bd 6c 46 17 3e
       0.12058595 0.065285094 -0.058377977 0.14772958
0002b0 c5 20 cb bd b3 6a 6d bd 41 39 ec 3d 99 f5 37 3d
       -0.0991836 -0.057963084 0.11534358 0.044911955
0002c0 3d 25 1d 3e 64 b3 1c bd 60 32 bc 3a 02 66 1e be
       0.15346237 -0.038257018 0.0014358275 -0.154686
0002d0 2c 48 98 3d 74 bd a4 3d 8f 41 d7 bd a1 37 2d be
       0.07435641 0.08043948 -0.10510551 -0.16915752
0002e0 92 9e 23 3e 64 04 a0 3c bc e8 9a bd 1c 13 5f bd
       0.15978459 0.019533344 -0.07563922 -0.054461583
0002f0 45 2f 01 3e b7 6a e6 bd 23 27 4b 3e 54 67 c7 3d
       0.12615688 -0.11250823 0.19839148 0.09736505
000300 5d 86 60 be 06 ca b9 3d ed 39 3b 3d 49 c7 03 bd
       -0.21926256 0.09071736 0.04570954 -0.032172475
000310 d3 de 50 be 11 1a 0e bd 29 5b 1f bd 74 46 f8 3d
       -0.203975 -0.034692828 -0.038905296 0.12122813
000320 35 9b 3e bb 94 e4 10 bc 5c da ef 3c 44 09 20 3e
       -0.002908421 -0.00884356 0.029278927 0.15628535
000330 e1 e2 84 bd 0d 2c 99 bd 90 1c 8c bc b9 77 85 3d
       -0.06488586 -0.07479105 -0.017103463 0.06516976
000340 16 a7 fc 3d 6a c8 2a 39 fe 65 a2 3c 4e 0b 79 bd
       0.123365566 0.00016287123 0.019824024 -0.060801797
000350 59 0a 2c bc 13 23 7b bd 8f f8 9e 3d 81 12 f4 bd
       -0.010500514 -0.061312746 0.077622525 -0.11917592
000360 e8 73 b9 bc 2b 0b 0c 3d 78 21 db 3c bb 4b 90 bd
       -0.022638276 0.034190338 0.026749358 -0.070456944
000370 cb dd fc 3d c8 14 a6 bc d8 06 1f be 88 0b c0 bd
       0.12346991 -0.020273581 -0.15529954 -0.093771994
000380 57 5e 83 bd 0f be e6 bc 0a 77 f7 bd 25 9a 35 ba
       -0.06414478 -0.028166799 -0.12083252 -0.00069275714
000390 35 b9 af 3d cf 65 d2 3a f2 78 35 bd bc 01 2c 3e
       0.08580247 0.001605207 -0.044304796 0.16797537
0003a0 63 76 6e bd 26 e5 91 bd dd a4 1e 3c 09 12 b4 3d
       -0.05821837 -0.07123785 0.009682861 0.087925024
0003b0 5a 26 b3 3d 76 f9 64 3d 4a 81 e3 bd a8 86 3b bd
       0.08747549 0.055901967 -0.11108644 -0.045782715
0003c0 8a 04 b4 3d bf ed 69 3e 91 ef f2 bb 34 26 7b be
       0.08789928 0.22844599 -0.0074138124 -0.24526292
0003d0 dd 58 53 3d 06 99 dc 3d 4e 02 32 be e0 78 d5 bd
       0.05159842 0.107713744 -0.17383692 -0.10423446
0003e0 86 a1 06 3e e2 98 ca bd 08 56 d5 bd ff e2 4a 3d
       0.13147554 -0.09892441 -0.104168 0.049532887
0003f0 7d 35 84 3d 57 4d ef bd ac b7 54 3d 4c 07 6a 3e
       0.064555146 -0.11684673 0.051932976 0.22854346

classifier.0.bias f4 [50]
000000 10 70 50 3e 29 fe 38 3d 79 f8 0c be 07 7a 67 bd
       0.20355248 0.04516426 -0.1376666 -0.05651286
000010 b6 cd bb bd 99 c2 59 3c a1 a0 40 be c4 49 fd bd
       -0.091700956 0.013291025 -0.18811275 -0.12367585
000020 bf a8 ac bc a0 ad 85 bd 1e e8 1b 3e 57 eb 9e be
       -0.021076558 -0.06527257 0.15225264 -0.31038925
000030 bb 59 0e 3e 05 cb 60 3e db 64 2d be 59 37 4e bd
       0.13901417 0.21952446 -0.16933005 -0.050345752
000040 5b a2 28 be e4 87 72 be eb d0 7e be ea 22 90 3d
       -0.16468184 -0.2368465 -0.24884383 0.07037909
000050 c3 87 44 bd 01 2f 83 3d 8a da 49 3e c7 4c ac bd
       -0.047981035 0.0640545 0.19712272 -0.084130816
000060 a6 cb d1 bd 48 c1 08 be 9f 7a 89 be 3d 71 d9 3c
       -0.10243921 -0.13354981 -0.26851365 0.026543254
000070 d6 af 95 bd 6d 3b 66 3e e8 72 d6 3c 17 f4 38 3d
       -0.07308929 0.22483607 0.026177838 0.045154657
000080 70 ce 98 3e b8 cc 0f be 64 a5 ab bd 1d 7d 88 bc
       0.29845 -0.14042938 -0.08381155 -0.016661221
000090 bd 09 99 ba 76 d8 81 3e b4 20 ed 3d 6c 9a 33 3e
       -0.0011675876 0.2536046 0.11578503 0.17539376
0000a0 e0 c3 81 bd d0 21 94 3e b4 a3 1a bc 53 5d 35 3e
       -0.06336188 0.28932047 -0.009438444 0.17711382
0000b0 e4 eb 3b 3e 73 c2 c7 bb fb 19 2d be 06 f2 04 bc
       0.18351704 -0.006096178 -0.16904442 -0.0081143435
0000c0 5f be 03 3e fb c8 5a 3e
       0.1286559 0.2136573

classifier.3.weight f4 [10, 50]
000000 3b 33 47 be bd 16 8e be 53 95 36 be 98 93 ac be
       -0.19453137 -0.27751723 -0.178304 -0.33706355
000010 08 c2 9c 3d 76 61 58 be 83 29 21 bb ed 2d ad be
       0.07654196 -0.21130928 -0.0024591393 -0.338241
000020 fe 69 8e be f2 55 ce 3d eb 1e 41 be f4 7e a2 be
       -0.2781524 0.100749865 -0.1885945 -0.31737483
000030 bd d9 5b bd b8 74 1b 3e cc 8f e0 3d 9c 5b 88 be
       -0.05367445 0.15181243 0.10964927 -0.26632392
000040 d4 37 73 be fb fb 8c 3b 03 20 28 be 72 02 0a 3e
       -0.23751765 0.0043024994 -0.16418462 0.13477495
000050 ef 28 ce 3d 37 24 14 be b1 6b be bc 18 e8 ba 3d
       0.10066401 -0.1446694 -0.02324471 0.091262996
000060 0a 11 41 be 91 d0 9d bd d0 41 ce 3d a1 7b 81 be
       -0.18854156 -0.077057965 0.100711465 -0.25289634
000070 3a 17 dd 3d 4b 09 c9 3c 6f 3a 83 be e6 ce 19 3e
       0.10795446 0.024540564 -0.2563052 0.15020332
000080 05 4c e4 be 19 7e 7f be e0 7b f1 3d 91 e1 18 3e
       -0.44589248 -0.24950446 0.117912054 0.14929797
000090 32 58 b2 3d 1a 2a 86 be 69 f4 e3 bd 13 42 98 3d
       0.08708228 -0.26203996 -0.11130602 0.07434478
0000a0 92 8e d9 bc 3c d1 69 bd 01 db 7f 3d ce 08 e2 3d
       -0.02655724 -0.057084307 0.062464718 0.110368356
0000b0 29 54 89 be eb 10 86 be 39 f5 b3 be cd 4d 9b bd
       -0.26822022 -0.26184782 -0.35148028 -0.07583199
0000c0 41 26 e3 3d d9 4e 15 3e 03 5d 6d 3d af a9 91 3d
       0.11091281 0.14580859 0.05795003 0.07112443
0000d0 f6 39 98 bd a4 a4 94 3d 72 87 66 be 22 ee 96 3d
       -0.0743293 0.07257965 -0.22512606 0.07369639
0000e0 99 69 af be f5 8b 93 3d 2c 05 fd bd cc fb cb be
       -0.34260252 0.07204429 -0.12354502 -0.39840543
0000f0 6e 45 1c 3e 5d 83 4f be 1a 0c fb bd ec 25 1d 3e
       0.1526086 -0.20264955 -0.122581676 0.15346497
000100 87 54 b8 bc 6f bb 13 be 13 64 e1 3c 53 b6 83 bd
       -0.022501243 -0.14426969 0.02751354 -0.0643126
000110 57 c7 81 be 2c bd 1c 3e 01 b1 94 be 5f 81 ac bd
       -0.25347397 0.15306538 -0.29041293 -0.08423113
000120 6a 5a 06 3e 71 3f 81 bd ca ad 17 be c9 65 0d bd
       0.13120428 -0.063109286 -0.14812389 -0.034520898
000130 d7 ce b1 be f6 28 fc 3d fc de 2b be 69 1a 13 3e
       -0.3472812 0.123125 -0.1678428 0.14365543
000140 bc ac 17 3e dd 8a 0d be b3 2c e6 3d ad be c1 bd
       0.14811987 -0.13822503 0.112389944 -0.09460197
000150 bc 71 35 be 83 97 e9 bd 17 e8 59 be 9d a4 23 3e
       -0.17719167 -0.11405852 -0.21279941 0.15980764
000160 69 97 2c 3e 38 9b 4e 3d b0 b9 a1 be a2 cf ff 3d
       0.16854633 0.050440997 -0.3158698 0.12490775
000170 99 d6 7a be ee 1e 15 3e dd 91 1c 3e bc 71 8a bd
       -0.24495925 0.1456258 0.15290017 -0.06759974
000180 c2 0f 4a be 99 46 09 be b8 5f 47 3e 29 e4 50 be
       -0.19732574 -0.13405837 0.19470108 -0.20399536
000190 42 18 4b be f8 db 96 be 6b 79 c1 bd 9e c5 6f be
       -0.19833472 -0.29464698 -0.09446987 -0.23415229
0001a0 95 c4 82 3d 7c 77 1b 3e aa 6b 07 be 83 22 72 bd
       0.06385151 0.15182298 -0.13224664 -0.059114944
0001b0 33 f2 ca 3d d8 78 a8 3d 14 16 33 be 05 09 1f be
       0.09909477 0.08226174 -0.17488891 -0.15530784
0001c0 e3 50 f9 3d 4a 43 9a be b9 7d 5b bc 57 1d fa 3c
       0.12173631 -0.30129462 -0.013396674 0.030531568
0001d0 83 46 78 3d 6a 3a 46 be eb e4 77 bd 5e d0 21 3e
       0.06061412 -0.1935822 -0.060521048 0.15802142
0001e0 76 7e 3f be 42 7e 27 3d a4 22 46 be 20 13 b9 3d
       -0.18700585 0.040891893 -0.19349152 0.09036851
0001f0 39 fe d5 3d 59 9e 8e 3d cf 67 17 be 42 80 f0 3d
       0.1044888 0.06963796 -0.14785694 0.11743213
000200 0a 29 57 bd b6 2d f5 3d 0f c4 03 be 83 50 0b 3e
       -0.052529372 0.11971609 -0.12867759 0.13604932
000210 ba a6 69 be cf 76 ca 3d 4b eb b2 3d 64 0b 05 3e
       -0.22817507 0.09885942 0.08736285 0.12992626
000220 52 ee 9a bd 9a 39 3f 3e 06 f4 e9 bd 0a e9 42 be
       -0.07564987 0.18674317 -0.11423497 -0.1903421
000230 37 24 d3 bd c1 a6 08 3e 21 c4 ee ba b4 9d 15 3e
       -0.10309642 0.13344862 -0.001821641 0.1461094
000240 88 3b 37 3e 66 d5 d8 bd 00 cd 5d be 00 80 03 3e
       0.17893803 -0.105875775 -0.21660233 0.12841797
000250 37 ed 8b be 34 84 95 be bd fe 77 be 1a 92 d8 3d
       -0.27329418 -0.29202425 -0.24218269 0.10574742
000260 81 1f 30 3e 99 a5 d4 bd ae 24 bd 3d 9f f1 23 3e
       0.17199518 -0.10383148 0.09235512 0.1601014
000270 94 7c 19 be f9 a7 bd 3d 24 1c d1 3d 72 54 00 be
       -0.14988929 0.09260554 0.102104455 -0.12532213
000280 12 5b 90 be 1b c8 15 3e 62 7a 18 be fd 0b 4b be
       -0.2819448 0.14627115 -0.14890435 -0.19828792
000290 03 2c 0c 3e 40 81 8a 3d 0a 3a 72 3d 14 89 a8 3d
       0.13688664 0.06762934 0.05913738 0.082292706
0002a0 8d da e8 bd 37 13 2b be 51 15 40 be 21 34 af 3d
       -0.1136981 -0.16706549 -0.18758132 0.08554865
0002b0 14 34 2d be ef bf 98 3d 0d 0f f4 bd 0b d2 b4 bd
       -0.16914397 0.074584834 -0.11916933 -0.08829125
0002c0 74 7f c1 bd 6b be e0 3d e3 d8 a3 3d 9e f3 bd 3d
       -0.09448138 0.10973819 0.08000352 0.09274982
0002d0 5b 11 1f 3e 0a e5 e4 bd bf b6 60 be 11 db e3 3d
       0.15533964 -0.11176498 -0.21944712 0.11125768
0002e0 82 ec 46 be 7d 29 80 bd 37 64 0d be df b9 b6 bd
       -0.19426158 -0.06257913 -0.1380776 -0.08922171
0002f0 a3 d4 8a bc 8c 39 8d be fc d4 d3 bd 56 a6 6b be
       -0.016947096 -0.27582967 -0.10343358 -0.23012671
000300 6c 83 48 3d 89 3d b1 bd a4 51 25 3d 78 46 2b be
       0.04895346 -0.08654315 0.04036106 -0.167261
000310 9d 10 17 be 1a 23 1e 3d 68 34 b2 be e8 e1 69 be
       -0.14752431 0.038607694 -0.34805608 -0.22840083
000320 93 25 83 3d af 83 33 be 78 0c 1e 3c 6f 86 30 bd
       0.06403651 -0.17530702 0.0096465275 -0.043096956
000330 a7 fe 06 be ae d8 19 3e 34 c7 17 3e a3 4b a7 bd
       -0.1318308 0.15024063 0.14822084 -0.081687234
000340 13 af 6f be f6 81 a2 3d a7 fb 1e 3e 48 ec e8 3d
       -0.2340663 0.07934944 0.15525685 0.11373192
000350 a6 ca 1a 3e 54 21 0d be 29 9a 8e be ab d1 ec bd
       0.15116367 -0.13782245 -0.2785199 -0.115634285
000360 f6 9c 95 be 39 5f 80 be d5 44 0c 3e 9b 23 91 bd
       -0.29221314 -0.2507265 0.13698132 -0.07086869
000370 0d b4 2d be c7 a9 5a be c5 5b d5 bd ef b9 31 be
       -0.16963215 -0.21353827 -0.10417894 -0.17356084
000380 76 68 fd 3d 8b 23 8c 3d 48 c0 b5 3d 5a 75 6d be
       0.1237344 0.06842717 0.08874565 -0.23189297
000390 78 58 01 be 30 01 1c 3e 55 6c c9 3d b2 5c 3d bc
       -0.12631404 0.15234828 0.09835116 -0.011557745
0003a0 49 79 f7 3d 2a 9c df 3d dc 7d b3 3d 99 02 8c be
       0.1208368 0.10918458 0.0876424 -0.27345732
0003b0 e8 d9 3d be d8 24 b5 bd 0f aa 38 3e 95 7f d6 bd
       -0.18540156 -0.08844918 0.18033622 -0.10473553
0003c0 46 08 19 3e 30 82 f8 3d a4 31 86 be 75 98 0a be
       0.14944562 0.12134206 -0.26209748 -0.1353472
0003d0 79 27 2a bd 45 24 1a 3e fd ab 9a 3d 13 bc b8 bd
       -0.04154155 0.15052898 0.075523354 -0.09020247
0003e0 f6 2d 39 3e bf 4d da 3d 4f 4d cd 3d 08 10 e3 3d
       0.18083939 0.1065936 0.10024511 0.11087042
0003f0 e8 4e 1b 3e 3b 6f 2e be 5e 51 e8 bd d3 01 59 be
       0.15166819 -0.17034619 -0.113436446 -0.21192102

classifier.3.bias f4 [10]
000000 ca 83 f2 3e 6d aa ee 3e 46 6d 51 be 7d 39 16 be
       0.47366172 0.466144 -0.20451841 -0.14670368
000010 7b 36 9f be b9 64 e3 bd 60 c3 59 be fb 83 27 3e
       -0.31096253 -0.11103196 -0.21265936 0.1635894
000020 de 6f cd bd 59 21 c3 bd
       -0.100311026 -0.09527845
