trained_models/revgrad.pt (torch_old, 91029 bytes, 8 tensors)

feature_extractor.0.weight f4 [10, 3, 5, 5]
00000000: d806 a23c bcf9 8a3d 1fd5 26be 9070 c8be
00000010: f9e1 14be 2863 343e 752e d7bd b793 dcbd
00000020: db55 7a3c c1d4 f43d e720 da3d 3c1e 0ebf
00000030: fa37 843d 9579 143e 3093 f63d 09e0 3bbe
00000040: a6e7 87be 60f8 1e3d aaeb cdbd db27 0a3e
00000050: 6e82 c3be dba9 a7be 1aac 24be 9744 1cbe
00000060: c86a 10be fbb2 a8bb d783 e63c 071e 983c
00000070: 199c 94be 28fd a3bd eaea 333e 8063 aebd
00000080: 876e a2bd 45ac fdbc 7c04 863e f66f 193e
00000090: e4cc 9dbe 2eb2 2a3e 8920 fc3d d139 7e3d
000000a0: 66a9 fdbc ed00 05be 3b03 053e 6dde 813d
000000b0: ecde 5b3e 0c8c 8dbe 63a2 8abe 950d e8bd
000000c0: 27e6 5bbe bb87 4ebd 31ef 2fbd 42d2 12bd
000000d0: 9365 ccbd a189 6ebe 3f3e 6dbe fb15 293e
000000e0: f670 2cbe 62ff a33c 065e a8bd baab d83d
000000f0: 8c84 9f3c b2e8 98be 6786 af3d 64a5 923d
00000100: b90c 723e 65a8 37bd 1aa4 5bbe 0dcc 77bd
00000110: 8b81 9a3d b053 6f3e 65c9 80be 11f4 8fbe
00000120: e279 22be f76c 25be a82e 8fbd 4cba 2a3e
00000130: 9083 0f3e 59a3 67bd 05bf 50be 6f8c 3c3b
00000140: fd39 253e 397c af3e c425 d53e 96af 0a3d
00000150: be89 ab3c 1d3a a7bd c965 b93e 7e9d 133e
00000160: 9c42 3fbd c2af 91bc ae4e 853e fbb1 2e3e
00000170: 2b6a 1abc ec86 5a3d eed7 cb3d 8be6 203e
00000180: 5c1b ee3d ff94 943d c7b4 1f3d f3df 083e
00000190: 619f 873d 49ca c3bc d278 4abe 241f 8abe
000001a0: 9e0d ed3d b3bd a5bd e19d 163e c8b1 173e
000001b0: 6f27 eabd fb60 913d 4032 fabe 9003 253b
000001c0: 7628 2fbe 21e9 37bc c5a4 59bd ed95 29be
000001d0: ace2 9b3c ba4d bcbe 78fa 47be a8a6 063e
000001e0: d018 3c3e 1886 893d 4864 65be 92fa 1dbd
000001f0: cbd5 36bd ab94 d63d bde2 18bd a447 a0bd
00000200: 780e e7bd 3218 113e 354f 7fbe dcf5 9bbb
00000210: 30e6 083d 0df4 013d 68d7 173d fb40 0cbf
00000220: 6864 cebc 2976 6fbd 180d 9fbc bb50 293e
00000230: 4644 d7bd d0c1 15bd 6ab6 71be 0aef 5cbe
00000240: f55f 1abd c68d 913d 6579 a8bd ac48 97bd
00000250: 97f6 d73d 3fb7 ca3d 9141 df3d e3b4 24be
00000260: 8733 263c c9b3 4dba 6f53 163d 3dee 2bbe
00000270: fadf e3bd 44b9 4c3e b9d5 643e 2e72 2e3e
00000280: ee96 e03d 0845 923e 14f8 283e 4235 0e3e
00000290: 26fb e83c fa30 733e 3062 033e 9f69 8fbd
000002a0: 95a8 12be 07fb 97bd 8a60 153d a669 afbd
000002b0: 9203 debd 96a4 4ebd 3b7e e33d 7fbd 6b3e
000002c0: a53a 19bc 1f83 b0bd 025e dbbd b0c4 86bc
000002d0: c5c4 90be 6608 7ebe dd7e d2bd 90c5 763d
000002e0: 6ddb 6c3b 7c47 53bd 25f4 d4bb c01a 6b3e
000002f0: 54ff 793c d8f6 fbbc f688 f33d e589 273e
00000300: 5e10 30be c0cd 33be 0a9f d6bd 2aaa b9bc
00000310: 8f5c 4cbe 1ddc 3fbd 9406 e63d fb61 1d3e
00000320: 6639 1d3e 54cc e13c b744 c6bd c706 913d
00000330: b30a 8f3d 50b8 66be 2154 9bbe add8 ad3d
00000340: b7ff b53b f1be 37bd 962d 47be f7e0 6e3d
00000350: a971 3f3e d979 90bd b6e0 38be 63a9 f13d
00000360: a65c f03d 871e c23c 4e1d 43be 8161 03be
00000370: afcf 1fbe e50d 97bd 912a cdbd 65e2 be3c
00000380: 3e3b 113e bf8f b8be ed0c 88bd 759b 573e
00000390: 86e7 243e baaa c93d de68 5abe b523 fabe
000003a0: 10d0 19bf 3bac debe b816 7ebe a3e8 8abc
000003b0: 6bfc 15bd daeb 89bd 2342 bfbd 3c2e 94be
000003c0: d4a4 133e 82ea 103e 127b 4fbd 2e1d e13c
000003d0: b67a 02be 038d f2bc 13c1 92bd 5001 1b3d
000003e0: 31db 153e e5f1 623d 45bf b7bd 487e f33d
000003f0: 3ba8 933e 3cb5 1d3e 271c 0c3e 85bd 3abd
0.019778654 0.06785914 -0.16292237 -0.39148378 -0.14539327 0.1761595 -0.10506908 -0.10770362
0.015279259 0.11954642 0.10650807 -0.55514884 0.06455989 0.14499505 0.120397925 -0.18347181
-0.2654392 0.038811088 -0.10054715 0.13491766 -0.38185447 -0.32746777 -0.16081277 -0.1526054
-0.14103234 -0.0051482893 0.028139038 0.018569006 -0.29025343 -0.0800727 0.17570081 -0.08515072
-0.07931238 -0.030965934 0.26175296 0.14984116 -0.30820382 0.16669533 0.12310893 0.062066857
-0.030964565 -0.12988634 0.12989514 0.063412525 0.21471757 -0.2764591 -0.27077016 -0.113307156
-0.21474515 -0.05042241 -0.04295272 -0.03584505 -0.09980311 -0.23294689 -0.23168276 0.16512291
-0.16839966 0.020019237 -0.082210585 0.10579629 0.019472383 -0.29865032 0.08570557 0.07160452
0.23637666 -0.044838328 -0.21449319 -0.060497332 0.075442396 0.23371768 -0.25153652 -0.28115895
-0.15866807 -0.16154848 -0.06991321 0.16672629 0.14015031 -0.056552265 -0.20385368 0.0028770228
0.16135402 0.34274462 0.41630375 0.033858858 0.020939704 -0.08165381 0.36210468 0.14415547
-0.046694383 -0.017784003 0.2603659 0.17060082 -0.0094247265 0.053351328 0.09953295 0.15712945
0.11626312 0.07254981 0.038990762 0.1336668 0.06622196 -0.023900168 -0.19772652 -0.26976883
0.11574863 -0.08092823 0.14708664 0.14813912 -0.114333026 0.07098576 -0.48866463 0.0025179125
-0.17105278 -0.011225016 -0.053135652 -0.16561098 0.019028984 -0.3677805 -0.1952914 0.13149512
0.1836884 0.067150295 -0.22401536 -0.03856904 -0.044637483 0.10477575 -0.03732561 -0.07826164
-0.112820566 0.14169386 -0.24932559 -0.0047595333 0.03342265 0.031726886 0.03707066 -0.5478665
-0.025194362 -0.058462296 -0.019415423 0.16534702 -0.10511069 -0.036561787 -0.23604742 -0.21575561
-0.037689168 0.07107119 -0.08226279 -0.07386908 0.1054508 0.09898233 0.10901178 -0.16084628
0.010144121 -0.00078469195 0.036700662 -0.167901 -0.111267045 0.19992548 0.22347154 0.17035744
0.109662876 0.28568292 0.16500884 0.13887504 0.02844007 0.23749152 0.12830424 -0.070025675
-0.14322121 -0.074209265 0.03646902 -0.08565073 -0.10840525 -0.05044993 0.11108061 0.23021506
-0.009352361 -0.08618759 -0.1071129 -0.01645121 -0.28275123 -0.24807891 -0.102781035 0.060247004
0.003614153 -0.051581845 -0.006498831 0.22959423 0.015258629 -0.030757353 0.118913576 0.16361196
-0.17193744 -0.17558956 -0.10479553 -0.022664148 -0.19957183 -0.046840776 0.112317234 0.15369408
0.15353927 0.027563252 -0.09681075 0.07081371 0.069844626 -0.22531247 -0.30337623 0.08488593
0.005554165 -0.04485983 -0.19450983 0.058320012 0.18695702 -0.070544906 -0.1805447 0.11799886
0.11736421 0.023696197 -0.19054148 -0.12830164 -0.15606569 -0.07375697 -0.100178845 0.023301313
0.14182755 -0.3604717 -0.066430904 0.21055396 0.16103944 0.09847017 -0.21329066 -0.48855367
-0.60083103 -0.43490776 -0.24813354 -0.016956633 -0.036617678 -0.06734438 -0.093387865 -0.28941524
0.14418346 0.14151958 -0.05065448 0.027479734 -0.12742123 -0.029608255 -0.07165732 0.03784305
0.14634396 0.05540647 -0.08972029 0.118893206 0.28839287 0.15401167 0.13682614 -0.045590896

feature_extractor.0.bias f4 [10]
00000000: 1e73 95bb 38a4 44be 0f78 a3be db88 e9bd
00000010: 27e7 abbd 5dc4 a9be 8f7e 113e 0fd5 bc3c
00000020: 039b 39be 3c0c b3bd
-0.004560842 -0.1920327 -0.31927535 -0.11403056 -0.08393698 -0.33157626 0.14208435 0.023050813
-0.18125539 -0.08742568

feature_extractor.3.weight f4 [20, 10, 5, 5]
00000000: d7e2 3dbe 6879 7abd 2dba 773c 5f30 3c3e
00000010: 6c49 2a3e 7624 97be 9554 76bd f16b 023d
00000020: f609 233d a8c2 09bd c64c 53bd 803c cfbd
00000030: e94e 3abe 6ce2 71be b55a 12be f433 bf3d
00000040: cdff 183c d3da 76bc 5246 103e 03a6 3b3e
00000050: e511 1e3d 4713 023e ce55 2e3e 776c 4d3e
00000060: d55e 83be 9ebc 383d 8b96 5e3c 17eb 2b3e
00000070: f7b8 bbbc 2e16 40bd c988 7e3d a449 da3d
00000080: fc6b 833d 9386 74bc d0b6 633d 4e34 8e3d
00000090: 8d44 b93d 99b6 bfbd dcd6 0fbd 3a28 793d
000000a0: b9a9 50bd c66a 8bbd ff89 0bbe 5636 1fbc
000000b0: 574b f3bd d36c 7b3c 1551 673d ced1 f03d
000000c0: fae5 e6bc bb8b 813c d38c 49bd 7a83 223d
000000d0: a763 f13d 2538 5b3e 2080 b53d 03c1 b6bd
000000e0: 2497 c5bd 8e8b be3c 583d 3d3e 609e 993e
000000f0: 0876 8ebd c091 44be 5680 debd 6008 243e
00000100: c75b d63d 67b7 81bb b284 5abd b4bf d4bd
00000110: 7923 93bd 346a 03be 27ea 84bd 5889 18be
00000120: 2c45 6cbe c688 063d 215c 203b a4da d23d
00000130: 5078 ffbb 1122 0c3d f505 aebd 441d 363b
00000140: 6fa4 86bc 9f45 cd3a d928 33bd 5510 2cbd
00000150: 3d76 cd3d 1642 62bc 298a 113d c647 d03d
00000160: f3bd 333e a3e8 6b3e 8a39 1dbd 11ad 0d3e
00000170: 5c4a 683e 4a87 9f3e 93e5 6e3d b17b b43d
00000180: 39ba 183e 46eb 3c3e ac9a b7bc 9e4e f8bd
00000190: 01a1 01be 3b21 953d d3a0 1d3c 6908 02bd
000001a0: b0b1 0dbe dfc6 6fbd 6fa5 2c3d 1452 33bc
000001b0: df33 60bd 1e58 2cbd 79a5 13be 8aa3 6fbd
000001c0: 0105 70be 4462 8bbe 5c3f afbd 779c 0dbd
000001d0: 35fc 85bd f039 12be 0b50 60be cfdc 2cbb
000001e0: 0215 91bc 969d 6d3c 67c9 16bd 6ee5 3a3d
000001f0: 4637 3e3d 4db8 3e3d b67d 83bd 4f98 bc3c
00000200: 3058 3cbe 42d3 17be 066d 2e3c 9fad f43c
00000210: ab67 03bd ab30 abbc be2c f7ba 0628 2fbb
00000220: 62cf c23c 2d7f e93d 5612 8b3d 83a5 aabd
00000230: c2f6 1cbd 05a4 ab3d c0a7 07bd 644a 0fbe
00000240: 5cf6 7c3b b407 2a3d 97dd 28bd ac53 343c
00000250: 391d b5bd df28 5e3c 153a b2bd d6e3 5a3d
00000260: 5ef8 a43d bdb9 0e3e 2817 603e 984e e7bc
00000270: ddbd f83d 45ca 093e 8236 263e f092 293e
00000280: 92a0 b53d b763 c73c e451 0cbd 26a0 86be
00000290: 7fa5 95be c29f 673d 249e 24be 300e 27be
000002a0: 157b 77bd 0adc efbd cc95 1abe e0d8 173d
000002b0: 5695 8b3e be84 633d 90d3 ebbd bd6b a7bd
000002c0: a844 e0bd 149c 57bd 364c 81be 0f7c 2fbe
000002d0: d51e 003e 900b cc3d fdd4 363e ce58 553e
000002e0: 3852 813e 587a 8c3c 9505 373e b350 353e
000002f0: 7aa5 883e d625 7e3e 6502 353c 8fdf 2a3d
00000300: db6f 133e 479d 6b3d 2747 64bd 7277 823c
00000310: 336d 523d 928d 9cbd 8319 85be 28aa 39be
00000320: b7e6 923e 3137 a33e 6290 8d3e ab74 ee3d
00000330: 52d0 203e 84fe 6e3e 836b 283e b679 783e
00000340: dcb6 ae3e 75fb b83e e897 ff3c 432a 8f3d
00000350: 75b3 ac3d dac3 623d d293 3ebd 90bb febd
00000360: 78c9 6dbd 254e b3bd a9c4 f7bb 40dc e4bd
00000370: 913b f1bc 8f07 e2bd d59f 02bd 0251 cbbd
00000380: cdd4 69bd 506e d2bd b4f2 8f3d 8597 ee3d
00000390: 9345 0e3e 5a91 183d 77f5 adbd 76e7 a13b
000003a0: f915 783d 9cd3 193c f0f1 2d3d d495 8abd
000003b0: 059c 35be f6e0 d3bd 139f 82bd 0d97 b9bd
000003c0: b3b8 8ebd e62d 9abd fd13 f0bd 2f25 41be
000003d0: 735b bcbd c2db 5e3d 05d3 b13d d72e 07bd
000003e0: 4690 cabc ed45 1f3e c440 edbd 4e60 63bc
000003f0: 086a 9dbd 6515 75be 9566 84be 60e4 34bd
-0.18543564 -0.06115094 0.015120071 0.18377827 0.1662957 -0.29520005 -0.060139257 0.031841222
0.03980442 -0.033632904 -0.05158689 -0.10118961 -0.18194164 -0.2362153 -0.14292414 0.09336081
0.009338331 -0.01506682 0.14089325 0.18325047 0.038591284 0.12702666 0.1702492 0.20060907
-0.2565829 0.045101754 0.013585697 0.16788898 -0.022915347 -0.046896152 0.062142167 0.10658577
0.06417081 -0.014924663 0.055594265 0.0694357 0.09046278 -0.093609996 -0.035117015 0.06082938
-0.05094311 -0.06807475 -0.1362686 -0.009717545 -0.11879604 0.01534577 0.05647381 0.11758767
-0.028185833 0.015813699 -0.049206566 0.039676167 0.11786585 0.21408136 0.088623285 -0.08923533
-0.096479684 0.023259904 0.18480432 0.30003643 -0.069561064 -0.19196224 -0.10864322 0.1601882
0.10466724 -0.003958631 -0.053349204 -0.10388127 -0.071845 -0.12833482 -0.064899735 -0.14896142
-0.23073262 0.03284528 0.0024468976 0.10295609 -0.007796325 0.034212176 -0.0849723 0.002778844
-0.01643583 0.0015661007 -0.043740127 -0.042007763 0.10032318 -0.013809701 0.03553215 0.1016994
0.17552929 0.23037963 -0.03838495 0.13835551 0.22684616 0.31157905 0.058324408 0.08812655
0.14914788 0.18449125 -0.02241262 -0.1212437 -0.12659074 0.07281729 0.009620863 -0.0317463
-0.13837314 -0.058539268 0.042149957 -0.010944862 -0.054736968 -0.042076223 -0.14418592 -0.058505572
-0.23439409 -0.27223408 -0.08557007 -0.034573045 -0.06542245 -0.14279914 -0.21905534 -0.002637673
-0.017710213 0.014502903 -0.036813166 0.045628957 0.04643943 0.04656248 -0.06420462 0.023021845
-0.18393016 -0.14826682 0.01064611 0.029867945 -0.032081287 -0.02089723 -0.0018857939 -0.0026726737
0.023780528 0.1140121 0.06790607 -0.0833235 -0.038321264 0.083808936 -0.033118963 -0.13993222
0.003859899 0.041511253 -0.04122695 0.011006277 -0.088434644 0.013559549 -0.087024845 0.053439938
0.08055185 0.13938041 0.21883833 -0.028235719 0.121455885 0.13456066 0.1623173 0.16559958
0.08868517 0.02433954 -0.034257784 -0.2629406 -0.29227826 0.05654884 -0.16075951 -0.16314006
-0.060420115 -0.11711891 -0.15096205 0.037072062 0.27262372 0.055546515 -0.11514962 -0.08174846
-0.10950595 -0.052639082 -0.25253457 -0.17137168 0.12511761 0.09963143 0.17854686 0.20834658
0.2525804 0.017148182 0.17873223 0.17706566 0.2668875 0.24819121 0.011047934 0.04171711
0.14398138 0.05752304 -0.05573192 0.015926097 0.05137367 -0.0764419 -0.25996026 -0.18131316
0.28691646 0.31878045 0.27649218 0.116433464 0.15704468 0.23339278 0.16447262 0.24265179
0.34123886 0.36129346 0.031200364 0.06990483 0.08432666 0.05536256 -0.04652769 -0.124381185
-0.058053464 -0.08755139 -0.0075612855 -0.11174822 -0.029447349 -0.11036598 -0.03189071 -0.099275604
-0.05708771 -0.10274947 0.07028714 0.11649994 0.13893728 0.037247993 -0.08494084 0.0049409224
0.06056783 0.0093888305 0.042467058 -0.06766859 -0.17735298 -0.10345642 -0.06377997 -0.09062014
-0.06968822 -0.07528286 -0.117225625 -0.1886184 -0.0919713 0.054408796 0.08682827 -0.033003654
-0.024726998 0.15554018 -0.11584619 -0.013877941 -0.076862395 -0.23933943 -0.25859514 -0.044163108

feature_extractor.3.bias f4 [20]
00000000: 2b10 b9bd 40ab a53e 99f5 a93e 70bb 6fbd
00000010: 16a7 99be 3bd0 0dbe 442d 97bb 1c64 3cbd
00000020: 60f5 73be 6b11 6d3e 90b4 a1be a27c 4ebd
00000030: 31e8 c1bd 9ee5 563d 9c7e e1be 671e 4c3e
00000040: e9ae 1abd a589 7c3c b568 6a3e 198e e0bd
-0.09036287 0.32357216 0.3319519 -0.058528364 -0.3001029 -0.13848965 -0.0046135504 -0.04599391
-0.23824072 0.23151176 -0.3158307 -0.050411828 -0.09468115 0.052465074 -0.44041908 0.19933473
-0.037764464 0.015413676 0.22891505 -0.10964603

classifier.0.weight f4 [50, 320]
00000000: 4b59 86be 4ad0 3fbe fccf 04bd 0103 9a3d
00000010: bd71 b9bd a82f 25be d8c6 ad3d 5deb 6b3e
00000020: 248b b33c 08cc 8fbd 9916 663e 0666 963d
00000030: 3e6e debc e6b2 b1bd 59e2 23bd 9213 48be
00000040: 4136 593d 00dd f73d f97e 143e 1bb5 393e
00000050: 7c13 bebc 3966 8cbd 2420 e03d 77f3 793d
00000060: 51d8 c8bb 7fd9 27be e87a 7d3d 894f af39
00000070: fe29 d4bc 0165 bdbd bce3 c8bd db56 13bd
00000080: e93a 7e3d 96b1 1ebd eed2 403d 55d6 23be
00000090: 5f42 173d b6a2 383d 2b76 c8bd 3940 a73a
000000a0: 833c ca3d d935 433e 7fae 5ebe 83cc bd3d
000000b0: 50fd e1bc 3acb 6cbd 5a31 94bc 401e af3d
000000c0: adae af3d 93bc fd3d 698f a63a d8cd d43d
000000d0: 801a fc3c c6d6 593d 6ba3 31bd e1f0 a8bd
000000e0: af10 1cbe 1993 383c bcd5 eb3c 2c4e 9ebd
000000f0: 43b9 41bd 4dc7 9e3d 622b 923c 5d44 22be
00000100: ff0a 66bd 504b 0cbe d011 2cbe 6c42 86be
00000110: 7bca e03d 1a9b c63d 8a88 e73d ccc9 bdbd
00000120: fa34 b4bd 2161 fe3b 0c9f 17bd 569e 6dbd
00000130: 7252 11be 1ff4 e53d eddb 963d 58fb 243e
00000140: 6e1f 75be 77c2 97bd c32f 933d babe 2c3d
00000150: e429 ad3d d52d d5bd aff4 c63d a2ff 4a3e
00000160: 7f82 973a f476 0fbe 7e5c cd3c 932c f5bc
00000170: 3377 4c3d 4cac 2fbc 6475 4dbb 9bd2 023d
00000180: 4aa5 18be 7ccd 55bc 54d2 3d3d e4d1 713e
00000190: adab 4bbe 7c7b 2bbd 9436 c83d 821e 173e
000001a0: faa5 5cbd c16d adbc c2e1 4bbd 20ca 133e
000001b0: 425e 503d 22a3 dabd 7630 07bd ed2f e2bd
000001c0: a597 16be 7c5c dfbd 9765 e33d bccf 9e3d
000001d0: e17b debd 4f2f e3ba ae10 09bd 0cd0 8e3e
000001e0: 4acb 4c3d 4050 27be fb22 c0bb eab0 46bd
000001f0: cbfc 3f3c 615c 4c3d a37c 7fbd b704 32be
00000200: 3be8 93be 150f 35be 16d3 34bd e0cb 5dbc
00000210: 17d3 2dbe c53d 063d 6f2e e43d ceb4 733e
00000220: 68e9 043d 71de b9bc ee4f b43c 1940 6d3e
00000230: 70fa 61bd 5334 c6bd 0415 8a3d 865a cf3a
00000240: b56f d73c 13a1 91bd 13d8 11bc e79d 3a3e
00000250: f467 2ebd ea34 bd3c a9dc 903d 2918 5ebd
00000260: 0bf7 37bd ef40 993d 8d7f 30bd 6853 b8bd
00000270: 703b 553d f8b1 2e3d ac34 0cbe 8b7e 15be
00000280: 16ac f7bd 5041 55be cd39 dbbd ad58 7d3d
00000290: c98b 823e e19f 8ebd 1894 76be 6229 d8bc
000002a0: b500 3a3e 2432 ae3c 0c04 dbbd 475a 153e
000002b0: f1b8 2fbe f3f8 07be ced9 073e 5d8e 9f3d
000002c0: 042e 333e 3cb3 b5bd 7a96 0fbc a1cf 00be
000002d0: 0006 f53d 19c5 b83d 6126 25be 6825 37be
000002e0: 6107 353e 64e5 843d dfc4 c0bd 8d24 d5bd
000002f0: 2995 3f3e 32ae b3bd 6660 823e ea5e 8e3d
00000300: ee06 77be ea4f 2a3e 14cc 253d ad51 8dbd
00000310: d7f9 72be 02dd 2dbd 70c3 f1bc ec81 113e
00000320: 8bb0 81bd fd54 8f3c f754 cf3c ce54 5d3e
00000330: 66e2 ebbd cb06 04bd ddc5 01bd 249e 543d
00000340: a9dc b83d d7df c43d ee5c 183d b723 ac3c
00000350: 7c97 afbb ed2e 9dbd 78b6 823c 9c22 f2bb
00000360: 4ca6 d7b9 83eb 123c 8409 df3c 16ba abbd
00000370: ffac d13d 873a 35bd 7fba 07be 1e80 a7bd
00000380: 8797 6abd 8220 93bd c86a 0abe 6b9e 98bc
00000390: d097 f33d cb7b dc3c 9727 8ebd 1e3c 363e
000003a0: acb2 c9bd e566 60bd ec9d 413c d61f 883d
000003b0: 7a35 a23d d0f0 dd3d 1509 9fbd dc71 c13a
000003c0: ff3b c03d 8959 923e 1273 8ebd 4500 a4be
000003d0: e744 843d 409a e23d cf36 46be 1b63 75be
000003e0: bcf0 173e a915 d9bd 891e 5ebd 32a9 1c3d
000003f0: 8fcb b83d be44 62bd 1a73 b13d a68a 873e
-0.2624 -0.187318 -0.03242491 0.07520104 -0.09054897 -0.1613146 0.08485192 0.23039003
0.021916933 -0.07021338 0.22469558 0.07343678 -0.027152177 -0.086767 -0.040010784 -0.19538715
0.053030256 0.12102699 0.14501561 0.18135493 -0.02320265 -0.06855435 0.1094363 0.0610232
-0.0061293026 -0.16391562 0.06188479 0.0003343786 -0.02589893 -0.092477806 -0.09809062 -0.035971504
0.0620679 -0.038743578 0.04707616 -0.1599973 0.03692853 0.04507705 -0.09788164 0.0012760229
0.09874823 0.1906351 -0.21746252 0.09267523 -0.02758661 -0.057811 -0.018089939 0.085506916
0.08578239 0.12389483 0.0012707534 0.10390824 0.030774355 0.05318334 -0.04336874 -0.08249069
-0.1524074 0.01126554 0.02878844 -0.07729754 -0.04729582 0.07752857 0.017842952 -0.15846391
-0.05616283 -0.13700604 -0.1680367 -0.2622255 0.1097612 0.09697552 0.1130534 -0.09267005
-0.08799167 0.0077630435 -0.037016913 -0.05801233 -0.14191607 0.11228203 0.07366166 0.16111505
-0.2393777 -0.07410138 0.07186844 0.04217408 0.08455256 -0.104091324 0.097146384 0.19824079
0.0011559277 -0.14010221 0.025068518 -0.029928481 0.049918365 -0.010722231 -0.0031350488 0.03193913
-0.14906803 -0.01304948 0.046343163 0.23615223 -0.19889708 -0.04186581 0.09776035 0.14757732
-0.053869225 -0.021170499 -0.049775846 0.14432573 0.05087114 -0.10675646 -0.0330052 -0.11044297
-0.14706285 -0.10906312 0.11103361 0.07754466 -0.10863472 -0.0017332825 -0.033463173 0.27893102
0.04999856 -0.16339207 -0.005863545 -0.048508562 0.011717985 0.049892787 -0.062374722 -0.17384611
-0.28888115 -0.17681535 -0.04414662 -0.013537377 -0.16975056 0.03277375 0.11141669 0.2379944
0.032449156 -0.022689076 0.02201077 0.23168983 -0.055170476 -0.09677949 0.0674229 0.0015819825
0.026298383 -0.071108006 -0.008901614 0.18224297 -0.042579606 0.02309652 0.070733376 -0.05422226
-0.044913333 0.07483088 -0.043090392 -0.090002835 0.052058637 0.042650193 -0.13691968 -0.14599054
-0.1209337 -0.20825696 -0.10704384 0.061852146 0.25497273 -0.06964088 -0.24079931 -0.02638692
0.18164332 0.021264143 -0.10694131 0.1458522 -0.17160393 -0.1327856 0.1326668 0.077908255
0.17498022 -0.08872077 -0.008763904 -0.12579204 0.11964035 0.090219684 -0.16127922 -0.17885363
0.17678596 0.06489065 -0.0941255 -0.10407362 0.18709244 -0.087734595 0.2546417 0.06951697
-0.24123737 0.16632047 0.040477827 -0.06900344 -0.23728119 -0.042447098 -0.029512137 0.14209718
-0.06332501 0.01749658 0.02530907 0.21614382 -0.115177915 -0.03223304 -0.031682838 0.051908627
0.090264626 0.096130066 0.037198 0.021013124 -0.0053586345 -0.07674966 0.015956149 -0.0073893797
-0.00041131896 0.008967283 0.027226217 -0.083851025 0.102380745 -0.04424527 -0.13254736 -0.08178733
-0.057273414 -0.07183935 -0.13517296 -0.018630227 0.1189419 0.026914498 -0.06941145 0.1779637
-0.09848532 -0.054785628 0.011817437 0.06646697 0.07920356 0.10836947 -0.07765404 0.0014758664
0.09386443 0.28583935 -0.06955542 -0.32031456 0.064584546 0.11064577 -0.19356845 -0.23963587
0.14837927 -0.105998345 -0.05422834 0.038247295 0.09023201 -0.05524134 0.08664532 0.26472968

classifier.0.bias f4 [50]
00000000: c0f9 8c3e ad07 c43d 4356 17be 7ab3 3ebc
00000010: b2a6 38be 69cb 9c3c ee34 cbbe a5b5 1ebe
00000020: ab1c cdbd 224c 19be c36e 4f3e 188c c9be
00000030: 6d12 cc3d 0f56 a53e 2e5c 82be a34c 15be
00000040: 9c22 1dbe 4e56 a6be e32a c8be deaf e83d
00000050: dc8f 42be fcf5 d9bc 7905 873e a269 03be
00000060: d8a8 17be 9754 26be 98a9 e9be 5860 ad3d
00000070: 3d94 e3bd 78f9 a73e 4501 123e 1910 95bb
00000080: 4a43 ae3e 86cb 70be 5664 09be b8c9 bcbc
00000090: 9385 58bc c960 8b3e 2440 de3d 1e6f 393e
000000a0: 326e 0bbe e07e c83e 045b b8bd 99b2 763e
000000b0: 8673 843e 592c cabd f07f 8bbe ced6 64bd
000000c0: 7a97 353e d81c 183e
0.27534294 0.095717765 -0.14779 -0.01163947 -0.18032339 0.019139962 -0.3968882 -0.1549898
-0.100152336 -0.14970449 0.20257096 -0.39364696 0.09964452 0.3229222 -0.25460953 -0.14580016
-0.15345234 -0.3248772 -0.3909522 0.11361669 -0.1900019 -0.026606552 0.26371363 -0.12833264
-0.14810503 -0.16243206 -0.45637202 0.08465642 -0.111122586 0.32807517 0.14258297 -0.004549038
0.34035712 -0.23515138 -0.13417181 -0.023045406 -0.01321544 0.2722228 0.108520776 0.18108794
-0.13616255 0.39159298 -0.09001735 0.24091567 0.25869387 -0.0987174 -0.27246046 -0.055868916
0.17733565 0.14854753

classifier.3.weight f4 [10, 50]
00000000: ebb3 7bbe d0a7 6abe 8f8c 4abe 7d90 cbbe
00000010: a4bc ad3d e166 82be b891 04bd 5381 a0be
00000020: 46b7 a1be c3f9 da3d fefd 27be 95cf 9fbe
00000030: 3f8b c3bd 1c82 023e d6bf c93d 49ac 46be
00000040: c0be 83be 2ab6 8a3c 4819 3ebe bb2e fe3d
00000050: 474c 9d3d 709c eebd 0c09 34bd de44 903d
00000060: e055 82be 9375 8cbd 6842 bf3d 3622 7bbe
00000070: 91f9 c03d 1a9d acbc 0ee7 7dbe b97e e53d
00000080: da92 d5be 84c4 5bbe 77e0 ec3d 0965 093e
00000090: a1a0 f53d 8996 6ebe 652b cdbd d9fe 7e3d
000000a0: ee27 83bd 0c32 cbbd 1620 763d be68 f63d
000000b0: 3dd9 85be e740 b1be 8757 cdbe b4c4 efbd
000000c0: 1570 da3d f9c1 c13d 9498 9d3d 766f 503d
000000d0: 8fd2 16be 1057 8a3d 8bfe 0dbe 8950 513d
000000e0: 88ae acbe 3327 473d 6db6 1cbe 04bb bfbe
000000f0: c331 063e 2d2b 85be 6901 44be 3b4b bd3d
00000100: 3f31 a1bb 320a 5bbe 1da6 d6bb 08e0 0bbd
00000110: 7093 92be 86ae 033e 0472 4bbe 500f 35be
00000120: d841 0e3e 5e94 01be 11b9 76be 8fed 893c
00000130: 7092 bfbe 34bc 4c3d 4675 7ebe 7336 013e
00000140: e510 063e c9a5 a4bd 1838 c43d cd75 5bbe
00000150: cdfe cebd fdfa 45be dbf1 a6be e669 1e3e
00000160: 1641 423e f362 243d 0fa0 89be 7b4a e73d
00000170: 8ff5 80be 129d ff3d b242 ed3d 992c dcbd
00000180: dbf4 2fbe d95b 0cbe 79b2 243e 18bb 3ebe
00000190: 937c 0abe 591c 6ebe ce92 afbd 4c51 42be
000001a0: eb62 673d 5229 fe3d 5852 f2bd 3b92 00be
000001b0: 1181 c53d 6694 963d 7b62 48be 415b 18be
000001c0: d6a0 e63d 42a1 8dbe 91e3 b1bb 3b6a bc3a
000001d0: 2a62 933d 58d7 70be 1b75 a7bc d365 1c3e
000001e0: 3f8c 25be da34 eebb e764 25be b7ca 7e3d
000001f0: c8b4 c63d ce23 0b3d 5aa9 14be e6b8 ec3d
00000200: a81b cbbd 68dd 0a3e 5bfb f1bd 22f3 043e
00000210: cb14 32be c948 f43d c43e a53d b84e 033e
00000220: ce1a d8bd 0b8d 303e 36cc 12be 3bd2 29be
00000230: 6771 0ebe ac52 f73d e88f 7ebc 5132 ff3d
00000240: d21f 453e 3afd 2fbd e277 5ebe 806d 023e
00000250: 9048 82be 70d4 d4be 282c 56be 374d dd3d
00000260: cf35 213e 1ed6 41be 963f cf3d 11f3 333e
00000270: 7014 56be 534a a63d bbf8 d03d 325c 17be
00000280: 7870 82be 373c 183e 1904 16be dafc 76be
00000290: 1aef fc3d 205d 9b3d 6ee2 a23d 96c0 c43d
000002a0: 765f d2bd 1b7c 36be f42e 54be 0443 8c3d
000002b0: a74f 17be 3eb3 b33d eb36 16bd 1522 c0bd
000002c0: 826f 2cbe ff20 093e 5885 8d3d 6c6c e73d
000002d0: 2cb4 2c3e 37c4 debd 5cb7 4fbe 2f6c f73d
000002e0: 4961 2abe cb85 9dbd f9d1 15be d34d cbbd
000002f0: 0442 2bbd 7db3 62be 8c48 adbd cdd3 3fbe
00000300: 033b 4d3d b7b2 24be da2b 073d cd6e 63be
00000310: cce9 f4bd 2b13 62bc 48f0 8bbe 8ee5 14be
00000320: eb1d 483d b714 68be 4f22 c03d f497 e2bc
00000330: bd62 efbd f637 f63d 5b90 103e 75a9 93bd
00000340: 3d42 60be 4808 9f3d f9b1 0b3e a152 da3d
00000350: 5bdc 2d3e cd40 4dbe c2af 93be 6dbc 06be
00000360: 1931 94be 0478 6bbe 2796 f43d 2ca5 d0bd
00000370: e5a0 56be 32f9 1fbe 2a37 bcbd f53a 10be
00000380: 1ed2 d13d f017 483d 9d29 973d dd3c 77be
00000390: 90d7 00be 6158 fc3d a612 c93d 3eb2 33bd
000003a0: 997a e03d 0e85 a43d 6a5b 293d 444f 46be
000003b0: 7f92 62be c4b2 93bd cbb2 173e a173 e8bd
000003c0: 531c 0a3e 9f8a db3d b0f8 7dbe 409b 1cbe
000003d0: 0939 59bd 1385 fc3d de9c 813d 0703 d6bd
000003e0: 28e3 3c3e 8e40 f93d 9cdf ae3d 9824 bc3d
000003f0: 7eaa 0b3e 45f8 46be 0331 24be 0a72 70be
-0.24580352 -0.22915578 -0.19780181 -0.39758673 0.08483246 -0.25469115 -0.03236553 -0.31348667
-0.3158514 0.106921695 -0.16405484 -0.3121306 -0.095480435 0.12744945 0.09851043 -0.19401659
-0.25731468 0.016932566 -0.18564332 0.12411257 0.076805644 -0.11650932 -0.04395394 0.070443854
-0.25456142 -0.06858363 0.09338838 -0.24524769 0.09422601 -0.021071006 -0.24795172 0.11205811
-0.417136 -0.21461684 0.11566251 0.13417448 0.11993528 -0.23299612 -0.100180425 0.06225476
-0.064041 -0.09921655 0.060089193 0.12031697 -0.26142302 -0.3461983 -0.4010584 -0.1170744
0.10665909 0.094608255 0.076951176 0.050887547 -0.14728759 0.06754887 -0.13866632 0.051102195
-0.33726907 0.048621368 -0.15303965 -0.3744737 0.1310492 -0.26009503 -0.19141163 0.09242865
-0.0049192007 -0.21390608 -0.006550564 -0.0341492 -0.2862811 0.12859544 -0.19867712 -0.17681623
0.13892305 -0.12654254 -0.24094035 0.01683691 -0.3741641 0.049984172 -0.24849424 0.12618427
0.13092382 -0.080394335 0.095810115 -0.21431656 -0.10107193 -0.19334026 -0.32606396 0.15470085
0.18970141 0.040133428 -0.26879928 0.11293503 -0.25187346 0.12481131 0.11584987 -0.10750694
-0.17183249 -0.13706912 0.16083707 -0.18626058 -0.13524084 -0.23253001 -0.08572923 -0.18976325
0.05649082 0.12410225 -0.11832112 -0.12555782 0.09643758 0.073525235 -0.19568817 -0.1487856
0.11261146 -0.27662092 -0.0054287394 0.0014374921 0.07196458 -0.23519647 -0.020441582 0.15273218
-0.16166781 -0.007269484 -0.16151772 0.062205043 0.0970245 0.033969693 -0.14517727 0.11558704
-0.099173844 0.13561022 -0.118155204 0.12983373 -0.17390744 0.11927945 0.08068612 0.12822998
-0.105519876 0.17241304 -0.14335713 -0.16584103 -0.13910447 0.12076315 -0.01553724 0.12460769
0.1925042 -0.042966105 -0.21725419 0.12737083 -0.25445986 -0.41568327 -0.20915282 0.10805743
0.15743183 -0.18929335 0.1011955 0.17573191 -0.20906234 0.08119645 0.102036916 -0.14781263
-0.25476432 0.1486672 -0.1465 -0.24119893 0.123502925 0.075861216 0.07953344 0.09607045
-0.10272114 -0.1782078 -0.20721036 0.0684872 -0.14776479 0.08774422 -0.036673468 -0.09381501
-0.16839412 0.13391493 0.06910199 0.11299977 0.16865605 -0.10877269 -0.2028479 0.12081181
-0.16638674 -0.076915346 -0.1463088 -0.09926953 -0.041811004 -0.22138782 -0.08461103 -0.1873314
0.050105106 -0.160838 0.033000804 -0.22210236 -0.11958656 -0.013798515 -0.27331758 -0.14540693
0.048856657 -0.22664152 0.09381544 -0.027660348 -0.11688755 0.120223925 0.14117567 -0.07210056
-0.21900268 0.077652514 0.1364211 0.106602915 0.1697859 -0.20044251 -0.2884503 -0.13157816
-0.2894371 -0.22995001 0.11942702 -0.10187754 -0.20959814 -0.15622404 -0.09190209 -0.1408499
0.10245155 0.048850954 0.07380984 -0.24144311 -0.1258223 0.123215444 0.0981801 -0.043871157
0.10960884 0.08033191 0.041346945 -0.19366175 -0.22126196 -0.07211831 0.14814298 -0.113501795
0.13487367 0.10719799 -0.24801898 -0.15293598 -0.05303291 0.123300694 0.06328748 -0.10449796
0.18446028 0.12170516 0.08538744 0.09186667 0.13639256 -0.19430645 -0.16034321 -0.23481002

classifier.3.bias f4 [10]
00000000: f09d 243f f079 353f c933 87be 4f3d 99bd
00000010: 7437 ecbe 04f4 36be 53d7 8cbe 96f3 0a3e
00000020: 582c 03be b6ab f7bd
0.64303493 0.70889187 -0.26406696 -0.07482397 -0.46136057 -0.17866522 -0.2750803 0.13569483
-0.12809885 -0.12093298
