trained_models/source.pt (torch_old, 91029 bytes, 8 tensors)

feature_extractor.0.weight f4 [10, 3, 5, 5]
00000000: ff30 7b3d 21fe bf3d 4d40 53be ce3f bdbe
00000010: 62e0 35be fb52 4f3e 2031 5abe c083 aabe
00000020: 81dd ac3c f8cf da3d dee8 093e 1341 27bf
00000030: f587 f43c 1696 213e b37d 1c3e e245 41be
00000040: 7c10 6bbe dbac 0f3e 8174 1abd 4f70 453e
00000050: 7c28 d5be c4fb 87be 902c d5bd 356d a6bd
00000060: b948 f2bb ad73 5e3b c982 7f3c c75d 04be
00000070: 56bf bcbe e09e fabd 25c4 143e 19bc 9fbe
00000080: 7ae9 fabe dc6b e7bd 22b4 5a3e 614b d83d
00000090: 4ce7 12bf b9cb be3c adf6 aa3d c36b 7f3d
000000a0: 9e2b 03be 6ae8 66be f60b 2f3e 8207 b93d
000000b0: f980 7a3e 9e50 c1be 6d76 68be 5528 31bd
000000c0: e2ca 08be 833d 9c3d d838 e5bc 12d3 1fbd
000000d0: 470d 58be 4680 8fbe fa69 8dbe f585 153e
000000e0: 0fd8 b9be 60fd abbe 1221 18be a1cc 603d
000000f0: 4d81 04bc 07df 03bf 6715 01bd aaf4 143d
00000100: f196 6f3e f11d edbd 0e6b 8bbe 981d 02bc
00000110: 5864 d03d c278 853e ae06 a6be 6339 63be
00000120: 6ace bdbd b32c b1bd c676 513d 9e80 c83c
00000130: f417 183d 35cf 40be 3197 a0be 1318 0bbc
00000140: 80a8 a8bd c3c3 053e d820 623e 2e0f 40bd
00000150: 62bc 083d f007 99be fb30 e03d 0e89 42bc
00000160: f003 0cbe 3f04 98bc e91b 863d adb8 933b
00000170: a1cf 03be 1d38 ac3c 9632 033e 0a62 b33c
00000180: 06be cf3c 4e88 973c 538c b23d 40ca 253e
00000190: 1b7a b73d 376c af3d 1a0b e3bd a710 8abe
000001a0: 6e36 823d 01c6 36bd eb72 603e 82ff 5f3e
000001b0: 145d efbc 9bd6 b73d 5598 88be 6b38 a03d
000001c0: 1685 00bd 02b6 873d 9ea8 1fbd 6c3c ebbd
000001d0: c413 de3d a958 4dbe acb6 06be 1dff 223e
000001e0: feb7 353e 9046 0d3e 8f23 2ebe 03d8 b23b
000001f0: 59b8 53bd e3c3 d83d 7a4a 733d 4dbe acbc
00000200: 9b16 37be 72e9 013d a2e1 6dbe 8fb6 883d
00000210: 5a37 c03d 0cfc 873d b634 fe3b da9e b4be
00000220: 8dd4 573d 610b 8f3d aedd 513c ea99 0c3e
00000230: 22a4 8ebd ca99 573d 75bd bbbd 9ce2 42be
00000240: 27e5 1bbd 199c 4e3d 2cd3 adbc 0e67 4dbd
00000250: 7371 ed3d e583 7c3d 3659 0c3e 821a 19be
00000260: 701a bc3c df57 463b dab2 2e3d 784e 73be
00000270: 3df4 d6bd 9bd7 443e c178 4b3e 0c78 f83d
00000280: 1190 283c 2ade 713e 34df f33d 3316 883d
00000290: 6f4f 9dbd 72d3 393e 241a b53d b83c c0bd
000002a0: cd8f 2fbe 1aa4 12be f43a fa3a 29d9 c0bd
000002b0: 5b04 12be b6c5 d0bd 9a23 903d 0db4 f93d
000002c0: 3e41 ecbd fd26 bfbd 0b4e a7bd 3cae d93c
000002d0: f971 a0be 4357 07be 72ec 43bc ca05 fb3d
000002e0: 0167 2d3d 5d0d 3d3c c8a3 ad3d e85a 9d3e
000002f0: 0fcd 8d3d eec9 04bd 86ff 4b3e 376d 803e
00000300: 37eb 88bd 6ef5 c4bd adb5 f9bd 716b 8a3c
00000310: 1c9c 1cbe 3df5 70bd 6010 7b3d fb8f e33d
00000320: 8d78 80bc bea4 08be 06bd 0abe 1b6f 9b3d
00000330: 14b7 c03d f18f 9cbe 219a 5fbe 03de 233e
00000340: 2434 623d a565 9ebc 1414 18be 00d4 0d3e
00000350: 065a 823e dd35 03bd 2ef5 4ebe 6a2b 3a3e
00000360: 7a69 433e 1a28 e03d af52 12be 7ca8 32be
00000370: d851 13be 77f1 6bbd 9b11 1abe 789c 91bd
00000380: 29a3 873d edd9 1abf d3ca a1bd fd56 563e
00000390: bea7 333e 4112 423e 1806 a7be 046d d5be
000003a0: aae8 0cbf 50e0 ddbe 76f9 92be 5072 a83c
000003b0: 5d7d 0fbc 67b4 b0bd 5b43 e6bd b518 b7be
000003c0: a1cb 633e 13d7 7b3e 816f 513d 89e3 f73d
000003d0: b775 c5bd 9463 973c f4c1 463c ad9e 103e
000003e0: 35ea 613e 331d 8c3d 8bb8 10bf f5fb ccbc
000003f0: e3c7 413e c8e9 ca3d 0df0 433e b4ca e3be
0.061326023 0.09374643 -0.20629998 -0.36962742 -0.17761377 0.20246498 -0.21307802 -0.33303642
0.021101715 0.10684198 0.13467738 -0.6533367 0.029849986 0.1577991 0.15282325 -0.18874314
-0.22955507 0.14030783 -0.037708763 0.19281124 -0.4163245 -0.2655927 -0.1040889 -0.08126298
-0.007393923 0.003394346 0.015595146 -0.12926398 -0.36864728 -0.12237334 0.14527948 -0.31198195
-0.49006253 -0.112998694 0.21357778 0.105612524 -0.5738418 0.023290502 0.08347831 0.06235863
-0.12809607 -0.22549596 0.17094406 0.09034635 0.24463262 -0.3775682 -0.22701426 -0.043251354
-0.13358644 0.0762892 -0.027981207 -0.03901965 -0.21098815 -0.28027552 -0.27619916 0.14601882
-0.36297652 -0.33591747 -0.14856365 0.05488265 -0.008087468 -0.5151219 -0.03151455 0.036366142
0.23397423 -0.115779765 -0.27230114 -0.007941626 0.10175389 0.26068693 -0.3242697 -0.2218986
-0.09267886 -0.08651104 0.05113866 0.024475392 0.03713222 -0.18829043 -0.3136535 -0.008489626
-0.08235264 0.13062958 0.22082841 -0.046889476 0.03338278 -0.29888868 0.10946842 -0.011873497
-0.13673377 -0.018556712 0.06548292 0.004508099 -0.12872173 0.02102285 0.12812266 0.021897335
0.025359165 0.018497612 0.08718171 0.16190434 0.08958837 0.08565562 -0.11086102 -0.2696583
0.06358038 -0.044622425 0.21918838 0.21874812 -0.029219188 0.089764796 -0.2667872 0.07823261
-0.03137692 0.06626512 -0.038979165 -0.11486134 0.10843614 -0.20053352 -0.13155621 0.1591763
0.17745969 0.13796449 -0.17005752 0.0054578795 -0.05168948 0.105842374 0.0593972 -0.021086836
-0.17879717 0.03171677 -0.23230603 0.06675445 0.093855575 0.06639871 0.0077577485 -0.35277444
0.05269294 0.06984592 0.0128092 0.13730589 -0.069648996 0.0526369 -0.091669954 -0.19031757
-0.038060334 0.050441835 -0.021218859 -0.05014711 0.11593904 0.061649222 0.13705906 -0.14951518
0.022961825 0.0030264778 0.042651035 -0.23760402 -0.104958035 0.19222872 0.19870283 0.12132272
0.010288254 0.23619905 0.11907807 0.06644859 -0.076811664 0.18147066 0.088428766 -0.09386581
-0.171447 -0.14320412 0.0019091056 -0.0941642 -0.14259474 -0.1019396 0.070380405 0.12192545
-0.115358815 -0.09333608 -0.081691824 0.02657234 -0.31336954 -0.13216881 -0.011958228 0.122569636
0.04233456 0.011538831 0.084785044 0.30733418 0.069238774 -0.032419138 0.19921693 0.25083324
-0.06685489 -0.096171245 -0.12192855 0.016896935 -0.15293926 -0.058827627 0.061294913 0.111114465
-0.015682483 -0.13344094 -0.13548669 0.07589551 0.094099194 -0.3057857 -0.2183614 0.1600266
0.055225506 -0.019335577 -0.14851409 0.13850403 0.25459307 -0.03203379 -0.20210716 0.18180624
0.19083205 0.10945149 -0.14289354 -0.17447084 -0.1438669 -0.057603326 -0.15045778 -0.07109922
0.06622917 -0.6048878 -0.07900014 0.20931621 0.17544457 0.18952276 -0.32621837 -0.41684735
-0.5504252 -0.433352 -0.2870595 0.020562321 -0.008757916 -0.08628159 -0.11243316 -0.35761037
0.22245647 0.24593763 0.05113173 0.12103946 -0.09641593 0.0184801 0.012131203 0.1412303
0.22061999 0.06841507 -0.5653159 -0.025022486 0.18923907 0.099078715 0.19134541 -0.44490588

feature_extractor.0.bias f4 [10]
00000000: c592 0f3e a4b9 54be 4663 57be e86d 363d
00000010: 9285 a9bd 3c02 6fbe d506 5e3a fe6d 293b
00000020: c4f8 2cbe 6e7f 28be
0.14020832 -0.20773941 -0.21033964 0.04453841 -0.0827743 -0.23340696 0.0008469646 0.0025852914
-0.16891772 -0.1645486

feature_extractor.3.weight f4 [20, 10, 5, 5]
00000000: f415 94bd e1d1 b03d 9935 093e 4c18 2e3e
00000010: 6d1e a93c 4d4c f6bd 826d c03c fc2c 1f3e
00000020: a311 313c 2d05 9bbe 98ef 18bc 2b20 d0bd
00000030: 62dd 36bd 661d 9cbe e87e a1be 89eb 033d
00000040: 045f 0dbd 12be 99bd d674 903b 439d b53d
00000050: 1bb6 07bd dd62 213e fdaf 2b3e eefa 783e
00000060: 181c 9fbd 2600 903c b6ac 893d a4c6 5ebc
00000070: f59d 5bbd fbaa 47bc 16e0 1f3d e4aa 6d3c
00000080: 02fe a8bc aec8 0ab9 0c8d 5f3c 2c07 733c
00000090: 71d7 b23c 0188 60bd 87da 293c 9ba3 4f3d
000000a0: 8c97 b5bd 942b 2fbd d158 adbd 3ff0 7f3d
000000b0: ddc2 89bd d103 153d c76f 9b3d 0e19 293d
000000c0: fa29 c83c d3ae 243d dddd e9bd 80cf 383d
000000d0: 4930 fd3d 0543 8a3e dec5 103e a7c7 11be
000000e0: b47c c9bd a753 f73c 9d7e ab3d d9bc 403e
000000f0: 4998 bdbd 8db5 5bbe 56b2 54be c69f 813d
00000100: 59a0 463d 3f15 ddbd 8086 12be 7763 e2bd
00000110: e15f d3bd bb4c 0fbe b4b3 bebd 99a0 16be
00000120: 6a9f 4cbe 3fbd 7f3d e500 ccbc 46ba b23c
00000130: 6e07 1e3d b73b cb3d fb16 9f3c f7d7 e73d
00000140: 5342 3cbd f2ec 8e3d 9c03 5c3d b27e 243d
00000150: 7dfa 223e 5cef 9dbd faab 9e3d 5f12 193e
00000160: 3b6d 363e 5717 163e e7a3 80bd d773 613e
00000170: d33f 443e ce3e 0f3e fe96 a5bd b88d cc3c
00000180: f8dd 013e 225f 8f3d 076c f2bd 7545 58be
00000190: f501 edbd cd46 183d 6f69 133d a77d 80bd
000001a0: 71e9 c3bd 3dd3 bebb 89cf 993d 18f3 a03d
000001b0: 02b9 51bd f2ba 2e3d cf5e c7bd c26a edbc
000001c0: b821 00be 531d 8abe 8072 38bd e3ea 51bc
000001d0: e016 8ebd 0195 cabd dbba 58be 39d9 bcbc
000001e0: 65b1 fc3b e641 4ebb 62ba 87bd ad70 bb3c
000001f0: 6d2d 9c3c 85a2 2d3c 9999 35bd c51b 1b3d
00000200: 42ec 16be 6eef 12be 822e bfbb b085 0d3c
00000210: 3732 813c db72 38bd 1187 adbc a48e 23bd
00000220: fdfa 2dbc 81a1 d63d 4c5b a33d 87f6 f9bd
00000230: c08a 88bc 7e18 093e a003 e7bc 40d0 1cbe
00000240: 6a59 13bd f12c 903a 7314 223d 3f0c 183d
00000250: cdf6 0fbe c8cb 77bd 21d7 adbd defd 50bb
00000260: 8134 a23d 7aa9 363e 5ba6 723e fea7 2cbd
00000270: c249 d23d 823c 203e 5f63 4a3e d3e3 5e3e
00000280: bf1a fb3c 3bf4 e7bc d074 513d 3d96 ccbd
00000290: 82ff 73be 3ccb cdbc ffe9 b1bd 9690 b5bd
000002a0: a8aa 66bd 49b2 b2bd 2432 33be 7dc9 373c
000002b0: ba21 803e 01d7 693d 5fb3 3cbe 768d b5bd
000002c0: ef90 eebd 3971 50bd 0993 59be 67f5 d2bd
000002d0: 0fb0 fc3d 97cf a83d 7aa9 043e 77a9 1a3e
000002e0: 3b3d 453e feeb 81bd 08c1 673d 4ecb 793d
000002f0: 3317 053e 5514 de3d f81d 44bd 7348 04bc
00000300: adfd c53d 3e1b 593d d0ca 49bd 18df 55bc
00000310: fce8 3e3d 8e62 9abd 0a74 5abe 876b 2abe
00000320: 3349 383e e309 033e 7dd2 d33d 3033 b2bc
00000330: a888 2e3d 7d9b bb3d 938f e5bc 784d 8f3d
00000340: fe16 013e 6dd1 263e 0278 0139 fd7c b83c
00000350: be5b 8c3c c449 213c 5b12 fdbd 4513 d7bd
00000360: 4c5a f33c bbd0 aebc 1750 b13c 436a c9bd
00000370: 5182 1fbe b9ed b8bd 6b6c dd3b 1842 c6bd
00000380: 26b6 0abe af05 32be 9cd2 0c3d 0720 a53d
00000390: 8ab2 143e 7fb8 bdbc b6f3 0dbe 7583 173d
000003a0: 2b32 c93d 4040 cb3c 97bf 9dbd 90d4 fcbd
000003b0: dc0d 01be ddc7 fbbd b0f1 14be 4d3c 4dbe
000003c0: 2e40 aebd b5bc 0dbc 10d4 f8bd 1475 83be
000003d0: ec4a 46be 40a4 4b3d a4a3 2b3e 01da dcbc
000003e0: 4f5a 40bd 4c9a 883d 31f9 9f3d 98a5 c43d
000003f0: 256b 223e 9e73 923d 9c8e 0dbe d0d0 b23c
-0.0723075 0.08633781 0.13399352 0.17001456 0.020644391 -0.12026272 0.023489717 0.15544504
0.010807428 -0.30277386 -0.009334467 -0.101623856 -0.04464472 -0.3049118 -0.31542134 0.032207046
-0.034514442 -0.07506956 0.004408459 0.08867886 -0.033132654 0.1576037 0.16766353 0.24314472
-0.0776903 0.017578196 0.06722395 -0.013597164 -0.053617436 -0.012186761 0.039032064 0.0145060755
-0.020628933 -0.00013235465 0.013644468 0.014833253 0.021831246 -0.054817203 0.010367042 0.050693136
-0.08866796 -0.04276617 -0.08464206 0.062484976 -0.0672662 0.036380593 0.07589679 0.04128366
0.024434078 0.040205788 -0.1141927 0.045119762 0.12362725 0.27004257 0.1413798 -0.14236318
-0.09838238 0.030191256 0.08373759 0.1882204 -0.09257562 -0.21455975 -0.20771155 0.063293025
0.048492763 -0.10795068 -0.1430912 -0.11054128 -0.10321022 -0.13994114 -0.093116194 -0.147097
-0.19982687 0.06243634 -0.02490277 0.021817338 0.038581304 0.09923499 0.019420138 0.11320489
-0.04596169 0.069787875 0.05371438 0.04015989 0.15915866 -0.0771167 0.07747646 0.14948414
0.17815106 0.14657341 -0.06281262 0.22016846 0.19164972 0.13988802 -0.0808544 0.02496992
0.1268233 0.07000567 -0.11837011 -0.21120246 -0.11572639 0.037176896 0.03598922 -0.06273966
-0.0956601 -0.0058235214 0.07510287 0.078588665 -0.051201828 0.042658754 -0.0973488 -0.02898157
-0.12512863 -0.26975498 -0.04503107 -0.012812349 -0.06937957 -0.098917015 -0.2116503 -0.023052799
0.0077115768 -0.0031472384 -0.066273466 0.022880876 0.01906463 0.01059783 -0.044335935 0.03786828
-0.14738563 -0.14349148 -0.0058344016 0.008637831 0.015771015 -0.04503141 -0.021182569 -0.039930955
-0.010618922 0.10480023 0.07976398 -0.122052245 -0.016667724 0.1338825 -0.02819997 -0.15313816
-0.035973944 0.0010999722 0.039570283 0.037121054 -0.14058991 -0.060497075 -0.08488298 -0.0031889598
0.079201706 0.17838088 0.23696272 -0.042152397 0.102679744 0.15648082 0.1976447 0.21766596
0.030652402 -0.0283147 0.05113679 -0.09989593 -0.23827937 -0.025121324 -0.08687209 -0.08865468
-0.056315094 -0.087254114 -0.17499596 0.011217472 0.2502573 0.05708981 -0.184278 -0.08864872
-0.11648738 -0.050889228 -0.21247496 -0.10300713 0.12338268 0.082427196 0.12955275 0.15103708
0.19261639 -0.0634384 0.056580573 0.060984902 0.12997131 0.10843722 -0.047880143 -0.008073914
0.096675254 0.053004496 -0.049265683 -0.013053678 0.04660891 -0.07538329 -0.21333328 -0.16642581
0.17996673 0.1279674 0.10342882 -0.021752924 0.042610794 0.091605164 -0.028022563 0.06997198
0.12606427 0.16290827 0.00012347105 0.022520537 0.01713359 0.009844247 -0.12357017 -0.10501722
0.029706143 -0.021339765 0.021644635 -0.09834721 -0.15577056 -0.09029717 0.006757309 -0.09680575
-0.13546047 -0.1738498 0.03438054 0.08062749 0.14521232 -0.023159264 -0.138625 0.0369906
0.09824022 0.02481091 -0.077025585 -0.123452306 -0.12602943 -0.1229398 -0.14545321 -0.20042534
-0.08508335 -0.008650948 -0.12149823 -0.2567526 -0.19364518 0.049717188 0.16761643 -0.026959421
-0.046961125 0.06670055 0.07811201 0.09601897 0.15861185 0.071509585 -0.13823932 0.021828085

feature_extractor.3.bias f4 [20]
00000000: 4c92 dbbd a1db 363a 4ffe 853c 586e 193d
00000010: b8a5 87bd cd87 33be 0b41 b0bd cd59 35be
00000020: decb c5bd 5bc1 f93c b65f c9bd 8abb 86bd
00000030: d2a1 9cbd 3a86 ca3d 37c3 6abd 21ea b4bd
00000040: 3e3c 2bbe 900a 13bb ab79 5d3d c2f6 e4bd
-0.10721263 0.0006975476 0.016356615 0.037458748 -0.06623405 -0.17532273 -0.08606156 -0.17710038
-0.09658025 0.030487707 -0.098327085 -0.06578739 -0.07648052 0.09888883 -0.057315078 -0.08833719
-0.167222 -0.0022436716 0.05407111 -0.11179878

classifier.0.weight f4 [50, 320]
00000000: a301 71be b775 28be 2d97 8cbc 8de9 c63d
00000010: 8188 cabd d5b2 30be f2d3 0f3d d6e6 6b3e
00000020: 00f9 8dbc feec e8bd ac5d 7c3e 319f bf3d
00000030: 8db5 203c bd03 c1bd 5079 a1bc 649f 09be
00000040: 2b17 8b3c 2a44 793d 67c5 ad3d 7a62 193e
00000050: d802 adbd 7fca c8bd 03ba 253d bc70 b93d
00000060: 81d6 ebbc bf45 25be f0d9 c9ba 0c57 08bc
00000070: cc72 abbc 1644 35bd 0b7a cabd 3a38 263c
00000080: b678 523d 09b0 70bd ff0f 10bd 6d18 2fbe
00000090: f901 973b 3854 adbb 11cd 08bd 0846 433d
000000a0: 262f e43c 0f60 103e cbc4 3ebe 0a1e c53c
000000b0: 374a 793c e04e e3bd 9e61 78bd bcdc 313d
000000c0: 8992 0c3e 9c4e 223e 93d5 943b d46e fa3d
000000d0: 6c5f 2c3d 4bb3 8c3d 2b35 05bd 4600 a7bd
000000e0: b460 84bd ce26 6a3c bf4b 883d 189e b7bd
000000f0: 1445 853c 1303 d33d 8d77 323d 8c33 20be
00000100: 8f0e 00be 4790 d9bd 27d4 e4bd 569d 80be
00000110: 9f87 233d d5ae a13d 1c3a 193d c941 e0bc
00000120: 3090 5abd 2955 bf3b 6431 3dbc b034 f93b
00000130: 72d9 b1bd 635e b93d 81b7 123d a97c ee3d
00000140: 87e8 41be 40f9 eabd 9d3f a23c 8574 0e3c
00000150: d944 d93d f184 12be dd95 d13d fe40 2c3e
00000160: 6d2f b1bb b9b7 3cbe f258 b7bc f889 97bc
00000170: 415e f03c dbe3 61bd 9033 47bd f4e4 78bd
00000180: 62dc d4bd de97 94bd 15c4 883d aeac 4a3e
00000190: ceb6 45be 112a 8cbd 16cf b93d 6a95 e83d
000001a0: e863 cabd 1734 62bd ce46 80bc c347 d03d
000001b0: 271a 1d3d a2a4 1dbe 5384 14bd f20d febd
000001c0: 2045 13be 22e6 c5bd 23aa 293e d553 d03d
000001d0: 400d a1bd 977a d73b bd36 64bd 8008 823e
000001e0: 115f 123d b4cb 3dbe 220c bfbd 7703 343c
000001f0: 67de 35ba 9311 d4bc f596 d5bd 02ed 0ebe
00000200: 7433 90be 1fb0 33be 5f04 c5bd 691f 92bd
00000210: 44ca 4cbe 0947 ca3b ce00 ae3d e634 7c3e
00000220: 0674 23bd f92f 8ebc d5c8 9f3c ef1d 4b3e
00000230: dc8c 61bd eb88 a2bd d1e8 9e3d 8e21 9abc
00000240: 3bbb 513c 5de8 74bd 0e23 a83c f301 4b3e
00000250: 6871 c1bd 144d fe3c 6f16 6b3d 9516 8bbd
00000260: 0589 653b d10b 7fbc e3cc 23bd 143a e3bd
00000270: 3986 3bba 6897 0b3d d7a7 f2bd 664e 56be
00000280: 28bd c9bd a28b 91be 955e 20be 7e6b 933d
00000290: 0ace 053e 7bb1 13bd a7f3 eabd 84da f53c
000002a0: c4f5 f63d 31b4 853d bf1d 6fbd 6c46 173e
000002b0: c520 cbbd b36a 6dbd 4139 ec3d 99f5 373d
000002c0: 3d25 1d3e 64b3 1cbd 6032 bc3a 0266 1ebe
000002d0: 2c48 983d 74bd a43d 8f41 d7bd a137 2dbe
000002e0: 929e 233e 6404 a03c bce8 9abd 1c13 5fbd
000002f0: 452f 013e b76a e6bd 2327 4b3e 5467 c73d
00000300: 5d86 60be 06ca b93d ed39 3b3d 49c7 03bd
00000310: d3de 50be 111a 0ebd 295b 1fbd 7446 f83d
00000320: 359b 3ebb 94e4 10bc 5cda ef3c 4409 203e
00000330: e1e2 84bd 0d2c 99bd 901c 8cbc b977 853d
00000340: 16a7 fc3d 6ac8 2a39 fe65 a23c 4e0b 79bd
00000350: 590a 2cbc 1323 7bbd 8ff8 9e3d 8112 f4bd
00000360: e873 b9bc 2b0b 0c3d 7821 db3c bb4b 90bd
00000370: cbdd fc3d c814 a6bc d806 1fbe 880b c0bd
00000380: 575e 83bd 0fbe e6bc 0a77 f7bd 259a 35ba
00000390: 35b9 af3d cf65 d23a f278 35bd bc01 2c3e
000003a0: 6376 6ebd 26e5 91bd dda4 1e3c 0912 b43d
000003b0: 5a26 b33d 76f9 643d 4a81 e3bd a886 3bbd
000003c0: 8a04 b43d bfed 693e 91ef f2bb 3426 7bbe
000003d0: dd58 533d 0699 dc3d 4e02 32be e078 d5bd
000003e0: 86a1 063e e298 cabd 0856 d5bd ffe2 4a3d
000003f0: 7d35 843d 574d efbd acb7 543d 4c07 6a3e
-0.2353578 -0.16451155 -0.01716193 0.09712515 -0.09889317 -0.17255719 0.035114236 0.23037276
-0.017330647 -0.11373328 0.24645108 0.09356535 0.00980891 -0.09424541 -0.019711167 -0.13439709
0.01697882 0.060856022 0.08484917 0.14978972 -0.08447808 -0.09804248 0.040460598 0.090547055
-0.028788807 -0.16139887 -0.0015400033 -0.008321535 -0.020928763 -0.044254385 -0.09886559 0.010145241
0.05138465 -0.05876163 -0.035171505 -0.17099161 0.0046083895 -0.0052895807 -0.03339869 0.04767421
0.027854513 0.14099143 -0.18629758 0.024062175 0.015215448 -0.110990286 -0.06063997 0.0434234
0.13727774 0.158503 0.0045420616 0.1222817 0.04208319 0.06870135 -0.032521408 -0.08154349
-0.06463757 0.014291478 0.066550724 -0.08965701 0.01626829 0.10303321 0.043571044 -0.15644664
-0.12505554 -0.10623222 -0.11173277 -0.25120038 0.03992426 0.07894675 0.037408933 -0.027375119
-0.053360164 0.0058390093 -0.01154742 0.007605158 -0.086840525 0.09051206 0.035819534 0.11644871
-0.18936358 -0.11473322 0.019805724 0.008694773 0.10608835 -0.14308526 0.10233662 0.16821668
-0.005407265 -0.1842946 -0.02238128 -0.018498406 0.029341819 -0.05514894 -0.04863316 -0.06076522
-0.10393597 -0.07255529 0.06678025 0.19792435 -0.19308016 -0.06843961 0.09072702 0.113566235
-0.09882337 -0.055225458 -0.015658762 0.101699375 0.03835502 -0.15394834 -0.036259007 -0.124050036
-0.14381838 -0.09663035 0.16568808 0.1017224 -0.07863855 0.006575893 -0.055716265 0.2539711
0.035735194 -0.18534738 -0.09328486 0.010987154 -0.00069377426 -0.025887286 -0.104291834 -0.13957599
-0.28164256 -0.17547654 -0.09619974 -0.07134897 -0.19999033 0.006173019 0.08496247 0.24629554
-0.03990557 -0.01735686 0.019504944 0.19835638 -0.055065975 -0.07936271 0.0775925 -0.018814828
0.012800987 -0.05979191 0.020524528 0.19824962 -0.09445459 0.031042613 0.05739444 -0.067914166
0.0035024297 -0.015566782 -0.039990317 -0.11095062 -0.00071534846 0.03407994 -0.11848419 -0.20928344
-0.09850532 -0.28426844 -0.1566108 0.07198237 0.13066879 -0.03605793 -0.11472254 0.030011423
0.12058595 0.065285094 -0.058377977 0.14772958 -0.0991836 -0.057963084 0.11534358 0.044911955
0.15346237 -0.038257018 0.0014358275 -0.154686 0.07435641 0.08043948 -0.10510551 -0.16915752
0.15978459 0.019533344 -0.07563922 -0.054461583 0.12615688 -0.11250823 0.19839148 0.09736505
-0.21926256 0.09071736 0.04570954 -0.032172475 -0.203975 -0.034692828 -0.038905296 0.12122813
-0.002908421 -0.00884356 0.029278927 0.15628535 -0.06488586 -0.07479105 -0.017103463 0.06516976
0.123365566 0.00016287123 0.019824024 -0.060801797 -0.010500514 -0.061312746 0.077622525 -0.11917592
-0.022638276 0.034190338 0.026749358 -0.070456944 0.12346991 -0.020273581 -0.15529954 -0.093771994
-0.06414478 -0.028166799 -0.12083252 -0.00069275714 0.08580247 0.001605207 -0.044304796 0.16797537
-0.05821837 -0.07123785 0.009682861 0.087925024 0.08747549 0.055901967 -0.11108644 -0.045782715
0.08789928 0.22844599 -0.0074138124 -0.24526292 0.05159842 0.107713744 -0.17383692 -0.10423446
0.13147554 -0.09892441 -0.104168 0.049532887 0.064555146 -0.11684673 0.051932976 0.22854346

classifier.0.bias f4 [50]
00000000: 1070 503e 29fe 383d 79f8 0cbe 077a 67bd
00000010: b6cd bbbd 99c2 593c a1a0 40be c449 fdbd
00000020: bfa8 acbc a0ad 85bd 1ee8 1b3e 57eb 9ebe
00000030: bb59 0e3e 05cb 603e db64 2dbe 5937 4ebd
00000040: 5ba2 28be e487 72be ebd0 7ebe ea22 903d
00000050: c387 44bd 012f 833d 8ada 493e c74c acbd
00000060: a6cb d1bd 48c1 08be 9f7a 89be 3d71 d93c
00000070: d6af 95bd 6d3b 663e e872 d63c 17f4 383d
00000080: 70ce 983e b8cc 0fbe 64a5 abbd 1d7d 88bc
00000090: bd09 99ba 76d8 813e b420 ed3d 6c9a 333e
000000a0: e0c3 81bd d021 943e b4a3 1abc 535d 353e
000000b0: e4eb 3b3e 73c2 c7bb fb19 2dbe 06f2 04bc
000000c0: 5fbe 033e fbc8 5a3e
0.20355248 0.04516426 -0.1376666 -0.05651286 -0.091700956 0.013291025 -0.18811275 -0.12367585
-0.021076558 -0.06527257 0.15225264 -0.31038925 0.13901417 0.21952446 -0.16933005 -0.050345752
-0.16468184 -0.2368465 -0.24884383 0.07037909 -0.047981035 0.0640545 0.19712272 -0.084130816
-0.10243921 -0.13354981 -0.26851365 0.026543254 -0.07308929 0.22483607 0.026177838 0.045154657
0.29845 -0.14042938 -0.08381155 -0.016661221 -0.0011675876 0.2536046 0.11578503 0.17539376
-0.06336188 0.28932047 -0.009438444 0.17711382 0.18351704 -0.006096178 -0.16904442 -0.0081143435
0.1286559 0.2136573

classifier.3.weight f4 [10, 50]
00000000: 3b33 47be bd16 8ebe 5395 36be 9893 acbe
00000010: 08c2 9c3d 7661 58be 8329 21bb ed2d adbe
00000020: fe69 8ebe f255 ce3d eb1e 41be f47e a2be
00000030: bdd9 5bbd b874 1b3e cc8f e03d 9c5b 88be
00000040: d437 73be fbfb 8c3b 0320 28be 7202 0a3e
00000050: ef28 ce3d 3724 14be b16b bebc 18e8 ba3d
00000060: 0a11 41be 91d0 9dbd d041 ce3d a17b 81be
00000070: 3a17 dd3d 4b09 c93c 6f3a 83be e6ce 193e
00000080: 054c e4be 197e 7fbe e07b f13d 91e1 183e
00000090: 3258 b23d 1a2a 86be 69f4 e3bd 1342 983d
000000a0: 928e d9bc 3cd1 69bd 01db 7f3d ce08 e23d
000000b0: 2954 89be eb10 86be 39f5 b3be cd4d 9bbd
000000c0: 4126 e33d d94e 153e 035d 6d3d afa9 913d
000000d0: f639 98bd a4a4 943d 7287 66be 22ee 963d
000000e0: 9969 afbe f58b 933d 2c05 fdbd ccfb cbbe
000000f0: 6e45 1c3e 5d83 4fbe 1a0c fbbd ec25 1d3e
00000100: 8754 b8bc 6fbb 13be 1364 e13c 53b6 83bd
00000110: 57c7 81be 2cbd 1c3e 01b1 94be 5f81 acbd
00000120: 6a5a 063e 713f 81bd caad 17be c965 0dbd
00000130: d7ce b1be f628 fc3d fcde 2bbe 691a 133e
00000140: bcac 173e dd8a 0dbe b32c e63d adbe c1bd
00000150: bc71 35be 8397 e9bd 17e8 59be 9da4 233e
00000160: 6997 2c3e 389b 4e3d b0b9 a1be a2cf ff3d
00000170: 99d6 7abe ee1e 153e dd91 1c3e bc71 8abd
00000180: c20f 4abe 9946 09be b85f 473e 29e4 50be
00000190: 4218 4bbe f8db 96be 6b79 c1bd 9ec5 6fbe
000001a0: 95c4 823d 7c77 1b3e aa6b 07be 8322 72bd
000001b0: 33f2 ca3d d878 a83d 1416 33be 0509 1fbe
000001c0: e350 f93d 4a43 9abe b97d 5bbc 571d fa3c
000001d0: 8346 783d 6a3a 46be ebe4 77bd 5ed0 213e
000001e0: 767e 3fbe 427e 273d a422 46be 2013 b93d
000001f0: 39fe d53d 599e 8e3d cf67 17be 4280 f03d
00000200: 0a29 57bd b62d f53d 0fc4 03be 8350 0b3e
00000210: baa6 69be cf76 ca3d 4beb b23d 640b 053e
00000220: 52ee 9abd 9a39 3f3e 06f4 e9bd 0ae9 42be
00000230: 3724 d3bd c1a6 083e 21c4 eeba b49d 153e
00000240: 883b 373e 66d5 d8bd 00cd 5dbe 0080 033e
00000250: 37ed 8bbe 3484 95be bdfe 77be 1a92 d83d
00000260: 811f 303e 99a5 d4bd ae24 bd3d 9ff1 233e
00000270: 947c 19be f9a7 bd3d 241c d13d 7254 00be
00000280: 125b 90be 1bc8 153e 627a 18be fd0b 4bbe
00000290: 032c 0c3e 4081 8a3d 0a3a 723d 1489 a83d
000002a0: 8dda e8bd 3713 2bbe 5115 40be 2134 af3d
000002b0: 1434 2dbe efbf 983d 0d0f f4bd 0bd2 b4bd
000002c0: 747f c1bd 6bbe e03d e3d8 a33d 9ef3 bd3d
000002d0: 5b11 1f3e 0ae5 e4bd bfb6 60be 11db e33d
000002e0: 82ec 46be 7d29 80bd 3764 0dbe dfb9 b6bd
000002f0: a3d4 8abc 8c39 8dbe fcd4 d3bd 56a6 6bbe
00000300: 6c83 483d 893d b1bd a451 253d 7846 2bbe
00000310: 9d10 17be 1a23 1e3d 6834 b2be e8e1 69be
00000320: 9325 833d af83 33be 780c 1e3c 6f86 30bd
00000330: a7fe 06be aed8 193e 34c7 173e a34b a7bd
00000340: 13af 6fbe f681 a23d a7fb 1e3e 48ec e83d
00000350: a6ca 1a3e 5421 0dbe 299a 8ebe abd1 ecbd
00000360: f69c 95be 395f 80be d544 0c3e 9b23 91bd
00000370: 0db4 2dbe c7a9 5abe c55b d5bd efb9 31be
00000380: 7668 fd3d 8b23 8c3d 48c0 b53d 5a75 6dbe
00000390: 7858 01be 3001 1c3e 556c c93d b25c 3dbc
000003a0: 4979 f73d 2a9c df3d dc7d b33d 9902 8cbe
000003b0: e8d9 3dbe d824 b5bd 0faa 383e 957f d6bd
000003c0: 4608 193e 3082 f83d a431 86be 7598 0abe
000003d0: 7927 2abd 4524 1a3e fdab 9a3d 13bc b8bd
000003e0: f62d 393e bf4d da3d 4f4d cd3d 0810 e33d
000003f0: e84e 1b3e 3b6f 2ebe 5e51 e8bd d301 59be
-0.19453137 -0.27751723 -0.178304 -0.33706355 0.07654196 -0.21130928 -0.0024591393 -0.338241
-0.2781524 0.100749865 -0.1885945 -0.31737483 -0.05367445 0.15181243 0.10964927 -0.26632392
-0.23751765 0.0043024994 -0.16418462 0.13477495 0.10066401 -0.1446694 -0.02324471 0.091262996
-0.18854156 -0.077057965 0.100711465 -0.25289634 0.10795446 0.024540564 -0.2563052 0.15020332
-0.44589248 -0.24950446 0.117912054 0.14929797 0.08708228 -0.26203996 -0.11130602 0.07434478
-0.02655724 -0.057084307 0.062464718 0.110368356 -0.26822022 -0.26184782 -0.35148028 -0.07583199
0.11091281 0.14580859 0.05795003 0.07112443 -0.0743293 0.07257965 -0.22512606 0.07369639
-0.34260252 0.07204429 -0.12354502 -0.39840543 0.1526086 -0.20264955 -0.122581676 0.15346497
-0.022501243 -0.14426969 0.02751354 -0.0643126 -0.25347397 0.15306538 -0.29041293 -0.08423113
0.13120428 -0.063109286 -0.14812389 -0.034520898 -0.3472812 0.123125 -0.1678428 0.14365543
0.14811987 -0.13822503 0.112389944 -0.09460197 -0.17719167 -0.11405852 -0.21279941 0.15980764
0.16854633 0.050440997 -0.3158698 0.12490775 -0.24495925 0.1456258 0.15290017 -0.06759974
-0.19732574 -0.13405837 0.19470108 -0.20399536 -0.19833472 -0.29464698 -0.09446987 -0.23415229
0.06385151 0.15182298 -0.13224664 -0.059114944 0.09909477 0.08226174 -0.17488891 -0.15530784
0.12173631 -0.30129462 -0.013396674 0.030531568 0.06061412 -0.1935822 -0.060521048 0.15802142
-0.18700585 0.040891893 -0.19349152 0.09036851 0.1044888 0.06963796 -0.14785694 0.11743213
-0.052529372 0.11971609 -0.12867759 0.13604932 -0.22817507 0.09885942 0.08736285 0.12992626
-0.07564987 0.18674317 -0.11423497 -0.1903421 -0.10309642 0.13344862 -0.001821641 0.1461094
0.17893803 -0.105875775 -0.21660233 0.12841797 -0.27329418 -0.29202425 -0.24218269 0.10574742
0.17199518 -0.10383148 0.09235512 0.1601014 -0.14988929 0.09260554 0.102104455 -0.12532213
-0.2819448 0.14627115 -0.14890435 -0.19828792 0.13688664 0.06762934 0.05913738 0.082292706
-0.1136981 -0.16706549 -0.18758132 0.08554865 -0.16914397 0.074584834 -0.11916933 -0.08829125
-0.09448138 0.10973819 0.08000352 0.09274982 0.15533964 -0.11176498 -0.21944712 0.11125768
-0.19426158 -0.06257913 -0.1380776 -0.08922171 -0.016947096 -0.27582967 -0.10343358 -0.23012671
0.04895346 -0.08654315 0.04036106 -0.167261 -0.14752431 0.038607694 -0.34805608 -0.22840083
0.06403651 -0.17530702 0.0096465275 -0.043096956 -0.1318308 0.15024063 0.14822084 -0.081687234
-0.2340663 0.07934944 0.15525685 0.11373192 0.15116367 -0.13782245 -0.2785199 -0.115634285
-0.29221314 -0.2507265 0.13698132 -0.07086869 -0.16963215 -0.21353827 -0.10417894 -0.17356084
0.1237344 0.06842717 0.08874565 -0.23189297 -0.12631404 0.15234828 0.09835116 -0.011557745
0.1208368 0.10918458 0.0876424 -0.27345732 -0.18540156 -0.08844918 0.18033622 -0.10473553
0.14944562 0.12134206 -0.26209748 -0.1353472 -0.04154155 0.15052898 0.075523354 -0.09020247
0.18083939 0.1065936 0.10024511 0.11087042 0.15166819 -0.17034619 -0.113436446 -0.21192102

classifier.3.bias f4 [10]
00000000: ca83 f23e 6daa ee3e 466d 51be 7d39 16be
00000010: 7b36 9fbe b964 e3bd 60c3 59be fb83 273e
00000020: de6f cdbd 5921 c3bd
0.47366172 0.466144 -0.20451841 -0.14670368 -0.31096253 -0.11103196 -0.21265936 0.1635894
-0.100311026 -0.09527845
