trained_models/wdgrl.pt (torch_old, 91029 bytes, 8 tensors)

feature_extractor.0.weight f4 [10, 3, 5, 5]
0	0x3be2a901	0.0069171195
1	0x3da6ff40	0.08154154
2	0xbe2adc6d	-0.16685648
3	0xbec7da7e	-0.39033884
4	0xbe81dff4	-0.25366175
5	0x3e0460bd	0.12927528
6	0xbe5ea74b	-0.21743505
7	0xbeab3b16	-0.33443516
8	0xbd68d872	-0.056847043
9	0xbbe10acc	-0.006867742
10	0x3d7156fb	0.05892084
11	0xbf230d93	-0.6369259
12	0xbd45bcc0	-0.04827571
13	0x3d53eabf	0.051737543
14	0x3cc5dd26	0.024153303
15	0xbe5e45c3	-0.217063
16	0xbe6a39e6	-0.22873649
17	0x3d9d8cae	0.07692848
18	0xbdfa366b	-0.12217411
19	0x3d9daefc	0.07699391
20	0xbece84c5	-0.4033567
21	0xbe932b8e	-0.28744167
22	0xbe0d647c	-0.13807863
23	0xbdfa2e37	-0.12215846
24	0xbdab7738	-0.083723485
25	0xbd505187	-0.050859
26	0x3b86dba4	0.0041155387
27	0xbdb21fca	-0.086974695
28	0xbec6e844	-0.3884908
29	0xbe4b3776	-0.19845375
30	0x3d9434ea	0.07236655
31	0xbea03177	-0.3128774
32	0xbefaf498	-0.49014735
33	0xbe438711	-0.19094492
34	0x3dcc5f80	0.09979153
35	0x3cfcc23a	0.030854333
36	0xbf0e3224	-0.5554526
37	0xbd5f4d4c	-0.054517075
38	0xbcb9cc9d	-0.022680575
39	0xbd87e89c	-0.066361636
40	0xbe1d8210	-0.15381646
41	0xbe63c4d0	-0.22243047
42	0x3ddc77db	0.10765048
43	0x3bbf349c	0.005835129
44	0x3e03de9c	0.12877887
45	0xbeb8e528	-0.36112332
46	0xbe7e210a	-0.24817291
47	0xbd9e0fb0	-0.07717836
48	0xbe32b07c	-0.17450136
49	0xb87c33c1	-6.012968e-05
50	0xbda87904	-0.08226207
51	0xbd500b2f	-0.050791916
52	0xbe2e9317	-0.17048298
53	0xbe99e751	-0.30059293
54	0xbeb45815	-0.3522345
55	0x3d9575ae	0.07297836
56	0xbebb734f	-0.3661141
57	0xbeacc316	-0.3374259
58	0xbe67e5da	-0.22646275
59	0xbd714faf	-0.058913883
60	0xbdab1328	-0.08353263
61	0xbefe7c3a	-0.49704152
62	0xbde14b70	-0.11000717
63	0xbd8ee883	-0.06977942
64	0x3dd7814e	0.1052271
65	0xbe12a798	-0.14321744
66	0xbe8ab193	-0.27088603
67	0xbd91f0ba	-0.07125993
68	0x3c8d3720	0.0172382
69	0x3e144920	0.1448102
70	0xbe9e8e76	-0.30968064
71	0xbe797543	-0.24361138
72	0xbe01af70	-0.1266458
73	0xbe027c25	-0.1274267
74	0xbcceb29b	-0.02523165
75	0xbd08332f	-0.033251937
76	0xbc607460	-0.013699621
77	0xbe6dffa4	-0.2324205
78	0xbeac7a9d	-0.33687297
79	0xbd80f52f	-0.06296765
80	0xbe06fe78	-0.1318301
81	0x3d9db579	0.07700629
82	0x3e305d49	0.17223085
83	0xbda3e33b	-0.08002325
84	0xba98ccdf	-0.0011657736
85	0xbea6f929	-0.3261197
86	0x3d6d3e8d	0.05792098
87	0xbd6691cd	-0.05629139
88	0xbe2dd5de	-0.16976115
89	0xbd49469d	-0.049139608
90	0x3cfd3b88	0.030912176
91	0xbd196057	-0.037445392
92	0xbe26ac66	-0.16276702
93	0xbb9645b7	-0.0045859474
94	0x3dd1fd1b	0.10253354
95	0x3c43c334	0.0119483955
96	0x3c7298b8	0.014806919
97	0x3b3b3de0	0.0028570816
98	0x3d947bf9	0.072502084
99	0x3e1c1866	0.15243682
100	0x3cf9ccdc	0.030493192
101	0x3d0d1914	0.034447744
102	0xbe1f3304	-0.15546805
103	0xbe943429	-0.28946045
104	0x3bff1ed9	0.0077856597
105	0xbdc15830	-0.094406486
106	0x3e29862c	0.16555089
107	0x3e2e36dc	0.17013115
108	0xbd809a3f	-0.0627942
109	0x3d5df786	0.054191135
110	0xbe946496	-0.2898299
111	0x3cde83a2	0.027162377
112	0xbd9b1884	-0.07573035
113	0x3d0569ec	0.032571718
114	0xbd8f9293	-0.07010379
115	0xbe18b9d8	-0.14914644
116	0x3d889665	0.066693105
117	0xbe702b86	-0.23454103
118	0xbe20cfc7	-0.15704261
119	0x3e089c0f	0.13340782
120	0x3e2aa077	0.16662775
121	0x3e01e85c	0.12686294
122	0xbe3e84c3	-0.18605332
123	0xbc1af974	-0.009458888
124	0xbd7b64bc	-0.061375365
125	0x3d3fbab8	0.04680893
126	0x3c056f95	0.008144279
127	0xbd87b61d	-0.06626532
128	0xbe4c4053	-0.19946413
129	0xbcc934ed	-0.02456137
130	0xbe907a3b	-0.28218254
131	0x3c57af29	0.01316432
132	0x3d38d330	0.04512328
133	0x3d03016a	0.03198377
134	0xbce69b42	-0.028150205
135	0xbec176e1	-0.3778601
136	0x3ab9d98a	0.0014179212
137	0x3ccde887	0.025135292
138	0xbcb01573	-0.021494603
139	0x3dd92fa1	0.106047876
140	0xbdd603c0	-0.10449934
141	0x3c2e4d82	0.0106385965
142	0xbe012065	-0.12610014
143	0xbe5cdc38	-0.21568382
144	0xbd8266cd	-0.06367264
145	0x3d228118	0.039673895
146	0xbd03d8af	-0.032189067
147	0xbd87742f	-0.06613957
148	0x3dcf35aa	0.101176575
149	0x3d557342	0.05211187
150	0x3defa714	0.117017895
151	0xbe3329aa	-0.17496362
152	0xbc85660e	-0.016284015
153	0xbd51ad46	-0.051190637
154	0xbca45436	-0.020059686
155	0xbe8c58e9	-0.27411583
156	0xbe22e118	-0.15906179
157	0x3e0333c9	0.12812723
158	0x3e075d01	0.13219072
159	0x3d6e665a	0.05820308
160	0xbd727fce	-0.059203915
161	0x3e26c950	0.16287732
162	0x3d492d49	0.049115453
163	0x3ba69cb8	0.0050846003
164	0xbe01babf	-0.12668894
165	0x3dd55fb6	0.10418646
166	0x3c9c6f9d	0.01909619
167	0xbe16b367	-0.14716874
168	0xbe5253f9	-0.20539846
169	0xbe2f5c48	-0.17125046
170	0xbd895795	-0.06706158
171	0xbe125af3	-0.14292507
172	0xbe2d6177	-0.16931711
173	0xbdfceb1e	-0.123495325
174	0x3d3860ee	0.045014314
175	0x3ddaf587	0.10691362
176	0xbe0bdaa0	-0.13657618
177	0xbe0703c7	-0.13185035
178	0xbe0a7d96	-0.1352447
179	0xbd12703e	-0.035751574
180	0xbeb1af29	-0.3470395
181	0xbe3d782e	-0.18502876
182	0xbd993b00	-0.074819565
183	0x3d6ad553	0.057332348
184	0xbca4dd42	-0.020125035
185	0xbd6a3458	-0.057178825
186	0x3c4fc58e	0.012681378
187	0x3e743669	0.23848881
188	0x3c11c3ef	0.008896812
189	0xbda8382b	-0.08213838
190	0x3dfbb6ed	0.1229075
191	0x3e3ae001	0.18249513
192	0xbdf4a583	-0.11945631
193	0xbe050206	-0.12989053
194	0xbe15db13	-0.14634351
195	0xbd52eda9	-0.05149618
196	0xbe4e1a32	-0.2012718
197	0xbdae0a37	-0.08498042
198	0x3d3319b9	0.043725703
199	0x3dbab380	0.09116268
200	0xbd01dfe2	-0.031707652
201	0xbe1f3f72	-0.15551546
202	0xbe320fd5	-0.17388852
203	0x3cb8baab	0.022549948
204	0x3d03466d	0.032049585
205	0xbeae284e	-0.34015125
206	0xbe8aabd8	-0.2708423
207	0x3dc794b5	0.097451605
208	0xbc1eeb10	-0.009699598
209	0xbda698cd	-0.08134613
210	0xbe5e0798	-0.21682584
211	0x3d886351	0.06659568
212	0x3e3e5bd4	0.18589717
213	0xbdbca910	-0.092119336
214	0xbe80d0f7	-0.25159428
215	0x3dd89503	0.10575297
216	0x3dfb0f93	0.1225883
217	0x3d689f3d	0.056792486
218	0xbe352dda	-0.17693272
219	0xbe4ca282	-0.19983867
220	0xbe59324e	-0.21210596
221	0xbdd95432	-0.10611762
222	0xbe357b03	-0.17722706
223	0xbdb792c0	-0.08963537
224	0x3d39907b	0.045303803
225	0xbf168a68	-0.5880494
226	0xbe23336f	-0.15937589
227	0x3da93f51	0.0826403
228	0x3d16f2af	0.036852535
229	0x3d654aad	0.05597942
230	0xbe985691	-0.29753545
231	0xbecc7107	-0.39929983
232	0xbf0a5a75	-0.54044276
233	0xbeeae30f	-0.45876357
234	0xbea85082	-0.32873923
235	0xbcd266f6	-0.025683861
236	0xbda9495d	-0.08265946
237	0xbe1df34b	-0.1542484
238	0xbe1712f6	-0.14753327
239	0xbebdc9ac	-0.37067926
240	0x3e1e9e23	0.15490012
241	0x3e22e89b	0.15909044
242	0xbd24c11a	-0.04022322
243	0x3d4d1bbb	0.050075274
244	0xbe083b1e	-0.13303801
245	0xbd429236	-0.04750272
246	0xbd8552e3	-0.0650995
247	0x3d677bce	0.056514554
248	0x3e0fd368	0.14045489
249	0x3c21e890	0.009882107
250	0xbf0bb6c4	-0.54575753
251	0xbdd4f2ef	-0.103978984
252	0x3d81b71c	0.063337535
253	0xbd1d7935	-0.03844567
254	0x3d6e51e2	0.05818356
255	0xbed3de2b	-0.41380438

feature_extractor.0.bias f4 [10]
0	0x3cad0bb7	0.02112375
1	0xbe5a49ca	-0.21317211
2	0xbe8ca4c7	-0.27469465
3	0xbd0f5564	-0.034993544
4	0xbde79306	-0.11307339
5	0xbe9e73bb	-0.3094767
6	0xbd9e4188	-0.07727343
7	0xbda44cec	-0.08022484
8	0xbe5e03c3	-0.21681122
9	0xbe5e3b18	-0.2170223

feature_extractor.3.weight f4 [20, 10, 5, 5]
0	0xbda38845	-0.07984976
1	0x3cd4cbc3	0.025976067
2	0x3d4bf798	0.04979667
3	0x3dfce7c3	0.123488925
4	0x3d5deda7	0.05418172
5	0xbe0992d6	-0.1343492
6	0xbcd0660d	-0.025439287
7	0x3db2e362	0.08734776
8	0xbb5b7bf8	-0.003349064
9	0xbe8bb907	-0.27289602
10	0xbccf608f	-0.025314597
11	0xbe073d81	-0.13207056
12	0xbdaf07b6	-0.085463926
13	0xbe963f59	-0.29345205
14	0xbe9df9d8	-0.30854678
15	0x3bccacdf	0.006246194
16	0xbd9fe6a5	-0.07807664
17	0xbdcffba3	-0.10155418
18	0xbbaf814e	-0.0053559905
19	0x3d9a03ee	0.07520281
20	0xbd9ae8f3	-0.07563963
21	0x3db08bb9	0.086204
22	0x3de27389	0.11057193
23	0x3e57a046	0.21057233
24	0xbdd4011d	-0.10351775
25	0x3d997214	0.07492462
26	0x3de00e34	0.10940209
27	0xbbe2464e	-0.0069053536
28	0xbd787e75	-0.060667474
29	0xbbe53baf	-0.00699564
30	0x3e004c9a	0.12529221
31	0x3d9ad4eb	0.07560142
32	0xbb7740ee	-0.003772791
33	0x3a34e516	0.00069005915
34	0x3d0e8b77	0.034800973
35	0x3ddbf8d1	0.10740817
36	0x3dad5c28	0.08464843
37	0xbd4464d4	-0.04794772
38	0x3cb40811	0.021976503
39	0x3d12552c	0.035725757
40	0xbcba4acf	-0.02274075
41	0xbce8517e	-0.028359171
42	0xbdcb55dd	-0.099284865
43	0x3d24c2c2	0.040224798
44	0xbe0238cb	-0.12716977
45	0x3d9125d2	0.07087292
46	0x3d1ca8b7	0.038246837
47	0xbc5a9247	-0.013340539
48	0xbb602799	-0.003420329
49	0xbbe325e3	-0.0069320067
50	0xbdb708f9	-0.08937258
51	0x3d84227c	0.0645189
52	0x3e03973a	0.12850657
53	0x3e7e1764	0.2481361
54	0x3ddb3e4e	0.10705243
55	0xbdf0153f	-0.11722802
56	0xbd98cb3f	-0.07460641
57	0x3d131163	0.035905253
58	0x3d8289ad	0.06373916
59	0x3e2c15f8	0.16805255
60	0xbd6bd21c	-0.057573423
61	0xbe4759a5	-0.1946779
62	0xbe4fe562	-0.20302346
63	0x3dadb701	0.08482171
64	0x3d8bd2ea	0.06827338
65	0xbd948392	-0.072516575
66	0xbdb91c16	-0.0903856
67	0xbd2bb8cc	-0.041924283
68	0xbd35b96f	-0.044366296
69	0xbdf3ae59	-0.118984886
70	0xbd24c70d	-0.040228892
71	0xbdb199a6	-0.08671884
72	0xbe131e00	-0.14366913
73	0x3dc86da0	0.09786534
74	0xbd50ae28	-0.05094734
75	0xbd0ee09a	-0.034882165
76	0xbbefc088	-0.0073166527
77	0x3d88fac8	0.06688458
78	0xbc24d4f7	-0.01006054
79	0x3d9c7658	0.0763976
80	0xbd9cc661	-0.07655025
81	0x3baee0fc	0.005336879
82	0xbc0f75b3	-0.008756089
83	0xbc19c87b	-0.009386177
84	0x3df346e1	0.118787535
85	0xbddcdd26	-0.10784368
86	0x3b37c3b1	0.0028040225
87	0x3d68def1	0.05685324
88	0x3db615f7	0.08890908
89	0x3dc4ed23	0.09615543
90	0xbdb6571a	-0.08903332
91	0x3e1adb9b	0.15122835
92	0x3dedca8c	0.116108984
93	0x3dae616a	0.08514674
94	0xbdec4449	-0.11536462
95	0x3cd13c03	0.025541311
96	0x3dcbdeba	0.09954591
97	0x3ce8d2df	0.028420864
98	0xbe293df3	-0.16527538
99	0xbe804e5c	-0.25059783
100	0xbd8f35ce	-0.06992684
101	0x3d4a2f3e	0.04936146
102	0x3d63438f	0.05548435
103	0xbc41f085	-0.0118371295
104	0xbcc9dafa	-0.024640549
105	0x3cfc278f	0.030780582
106	0x3d7e2e9e	0.062056176
107	0x3cc2346f	0.023706643
108	0xbd954371	-0.07288254
109	0x3d420226	0.04736533
110	0xbd9a5122	-0.07535006
111	0xbd299fde	-0.041412227
112	0xbe14d6cf	-0.14535068
113	0xbe85930f	-0.2608876
114	0xbda0c098	-0.07849234
115	0x3c647186	0.013943082
116	0xbd5c260c	-0.05374722
117	0xbd8cd229	-0.06876022
118	0xbe2df710	-0.16988778
119	0xbcf2d652	-0.029643212
120	0x3cd375c7	0.025812997
121	0x3be271d8	0.006910544
122	0xbd4b42bd	-0.049624193
123	0x3d72e2c9	0.05929831
124	0x3d14c2ea	0.036318697
125	0xbcb33f14	-0.021880664
126	0xbd505a72	-0.050867505
127	0x3d28598e	0.04110103
128	0xbe195d07	-0.14976893
129	0xbe15bf82	-0.14623836
130	0xbc117c24	-0.008879695
131	0xbad4b86e	-0.0016229281
132	0x3c92cca0	0.017919838
133	0xbd10708d	-0.035263587
134	0xbd044aed	-0.032298017
135	0xbd101443	-0.035175573
136	0xbc94e748	-0.01817669
137	0x3ddbf3b7	0.10739844
138	0x3dd60976	0.10451023
139	0xbdc2544e	-0.09488736
140	0xbce07bf9	-0.027402865
141	0x3db6bf2e	0.089231834
142	0xbd8abf7b	-0.06774803
143	0xbe2848d0	-0.16434026
144	0xbc925e5a	-0.017867256
145	0xbca1bb76	-0.019742709
146	0xbc9d50d3	-0.019203579
147	0xbcb3536c	-0.021890365
148	0xbe2eaa60	-0.1705718
149	0xbd881b9d	-0.06645892
150	0xbd8444a9	-0.064584084
151	0xbc9342f1	-0.017976256
152	0x3d012fa4	0.031539574
153	0x3dfe809d	0.12426875
154	0x3e37c899	0.17947616
155	0xbd06c031	-0.03289813
156	0x3dae477c	0.08509728
157	0x3df7bbab	0.12096342
158	0x3e1ac9ab	0.15115993
159	0x3e1a7d18	0.15086782
160	0x3d048de7	0.03236189
161	0xbd1962e0	-0.03744781
162	0x3d100183	0.03515769
163	0xbded8aad	-0.11598716
164	0xbe8f2af1	-0.2796245
165	0xbcf41954	-0.029797234
166	0xbdebee28	-0.11520034
167	0xbdff1a1b	-0.12456151
168	0xbde0438f	-0.10950386
169	0xbe175c4a	-0.14781299
170	0xbe4243fa	-0.18971244
171	0xbd0d25c9	-0.034459863
172	0x3e454186	0.19263276
173	0x3be328c9	0.006932352
174	0xbe6fc595	-0.23415215
175	0xbccefc9a	-0.025266934
176	0xbd76c414	-0.06024559
177	0xbba99ebf	-0.0051763947
178	0xbe2f9c00	-0.17149353
179	0xbd75268d	-0.059851218
180	0x3e272fb3	0.1632679
181	0x3dd603de	0.10449956
182	0x3e0145c7	0.12624274
183	0x3e13a3e9	0.14417996
184	0x3e397c9a	0.18113938
185	0xbce0297b	-0.02736353
186	0x3d953ee0	0.07287383
187	0x3d5a74da	0.053334095
188	0x3de5906d	0.11209188
189	0x3da64230	0.08118093
190	0xbcb3524e	-0.021889832
191	0x3c00dab4	0.007864643
192	0x3deb8d3d	0.115015484
193	0x3d9501fa	0.072757676
194	0xbce08929	-0.027409153
195	0x3bcfc9e6	0.006341207
196	0x3d7b972d	0.06142347
197	0xbcc79935	-0.024365047
198	0xbe0dc3ac	-0.13844174
199	0xbdbb74d5	-0.09153143
200	0x3e406efe	0.1879234
201	0x3e0ce254	0.13758212
202	0x3ddc6194	0.10760799
203	0xbce10aff	-0.027471064
204	0x3ce00098	0.027344033
205	0x3ddc371c	0.10752699
206	0xbcf5ebe7	-0.030019714
207	0x3d496cb1	0.04917592
208	0x3dd131cd	0.10214577
209	0x3e03d4de	0.12874171
210	0xba253db3	-0.00063034444
211	0x3c152545	0.009103124
212	0x3c319684	0.010839108
213	0x3c2d3db4	0.010573793
214	0xbe02b026	-0.12762508
215	0xbdde8892	-0.108658925
216	0x3c3851c7	0.011249966
217	0xbc9bf79c	-0.019038968
218	0x3cecc245	0.028901229
219	0xbdd67da9	-0.104731865
220	0xbe199fb3	-0.15002327
221	0xbde37952	-0.111071244
222	0xbca9e1c4	-0.020737536
223	0xbe0832b9	-0.13300599
224	0xbe323f1b	-0.17406885
225	0xbe1769e1	-0.14786483
226	0x3d68ca9b	0.056833845
227	0x3de2e5ff	0.110790245
228	0x3e3ac064	0.18237454
229	0x3c890def	0.016730277
230	0xbdfa78e8	-0.12230092
231	0x3d64f854	0.055900887
232	0x3e004fd5	0.12530454
233	0x3d6c516a	0.05769483
234	0xbd261e70	-0.04055637
235	0xbdd73fec	-0.10510239
236	0xbddbb5a6	-0.10728006
237	0xbdcc3e7d	-0.09972856
238	0xbdfd3d58	-0.12365216
239	0xbe3097bd	-0.17245384
240	0xbd8d9df8	-0.06914896
241	0x3a8dba3f	0.0010812952
242	0xbde30220	-0.1108439
243	0xbe7820eb	-0.24231307
244	0xbe30d54d	-0.17268868
245	0x3d5d55df	0.05403697
246	0x3e2cbefc	0.1686973
247	0xbcd3b5cc	-0.025843523
248	0xbce96ecf	-0.02849522
249	0x3db2e751	0.08735526
250	0x3c2ff068	0.01073847
251	0x3cee95ef	0.029124228
252	0x3dbb30e7	0.09140187
253	0x3a2c5867	0.0006574452
254	0xbe4fecc5	-0.20305164
255	0xbc7d4514	-0.015458364

feature_extractor.3.bias f4 [20]
0	0xbde7ef37	-0.113249235
1	0x3d7f30a0	0.06230223
2	0x3d863081	0.0655222
3	0x3d0f79bc	0.035028204
4	0xbdf45456	-0.11930148
5	0xbe2ff222	-0.1718221
6	0xbd84e0a0	-0.06488156
7	0xbe378673	-0.17922382
8	0xbe09b1b1	-0.1344669
9	0x3d9207bf	0.07130384
10	0xbe0e7034	-0.1390999
11	0xbd39054b	-0.045171063
12	0xbdbaab2d	-0.091146804
13	0x3dd9d450	0.106361985
14	0xbdff4264	-0.12463835
15	0xbc0ffaf0	-0.0087878555
16	0xbe1a3e67	-0.15062867
17	0x3cdacb49	0.026708262
18	0x3dcc4251	0.09973586
19	0xbe02cb17	-0.12772785

classifier.0.weight f4 [50, 320]
0	0xbe6e770b	-0.23287599
1	0xbe2a24bb	-0.16615574
2	0xbcd4329e	-0.025903042
3	0x3e059469	0.13044895
4	0xbdd4a56c	-0.10383114
5	0xbe29e5d3	-0.16591577
6	0x3d694e8d	0.056959677
7	0x3e8062e2	0.25075442
8	0xbca608e0	-0.020267904
9	0xbddc0087	-0.10742288
10	0x3e8c7a15	0.2743689
11	0x3def38f4	0.11680785
12	0xbccc281f	-0.024921475
13	0xbdce753d	-0.10080955
14	0x3b75df2e	0.0037517059
15	0xbdde99b3	-0.108691595
16	0xbbf4cb0f	-0.0074704955
17	0x3d5d0367	0.053958323
18	0x3dc85654	0.09782091
19	0x3e2f8c64	0.17143399
20	0xbe03112c	-0.1279952
21	0xbdd3cd67	-0.10341912
22	0x3d89c9a2	0.067279115
23	0x3dd5fe3b	0.10448881
24	0xbd3f40e6	-0.04669275
25	0xbe36b910	-0.17844033
26	0xbcb4bf0e	-0.022063758
27	0xbc7b0f06	-0.015323406
28	0x3ba786dd	0.0051125125
29	0xbd3c6299	-0.045992468
30	0xbde51097	-0.11184805
31	0x3c415414	0.011799831
32	0x3d824584	0.06360915
33	0xbd8af4a1	-0.067849405
34	0xbd0f7451	-0.035023037
35	0xbe3340ae	-0.17505142
36	0x3cdea688	0.027179018
37	0xbcf35296	-0.029702466
38	0xbd282168	-0.041047484
39	0x3da9b351	0.08286155
40	0x3d93090a	0.071794584
41	0x3e33b89f	0.17550896
42	0xbe2bb204	-0.16767126
43	0x3d821f43	0.06353619
44	0x3d10f8a8	0.035393387
45	0xbdc0b831	-0.09410132
46	0xbd680110	-0.05664164
47	0x3d7504b0	0.059818923
48	0x3e3fc39f	0.18726967
49	0x3e2d8337	0.16944586
50	0x3d272854	0.040809944
51	0x3dd49f83	0.10381987
52	0x3d8ae3de	0.067817435
53	0x3dd3cedf	0.10342192
54	0xbcdc1fde	-0.026870664
55	0xbdef5d5b	-0.11687728
56	0xbdba3c0a	-0.09093483
57	0xb8b96ba0	-8.841534e-05
58	0x3d51026c	0.0510277
59	0xbdc608b7	-0.09669631
60	0x3c17f177	0.009273878
61	0x3db27958	0.08714551
62	0x3d6c6e49	0.057722364
63	0xbe123b42	-0.14280418
64	0xbdd3ec6c	-0.10347828
65	0xbd681ad7	-0.05666622
66	0xbdd59e57	-0.104305916
67	0xbe8c2eee	-0.27379555
68	0x3cd2a9ed	0.025715793
69	0x3dcb4eb8	0.09927124
70	0x3d8be744	0.0683122
71	0xbd7a202e	-0.061065845
72	0xbd8393c2	-0.06424667
73	0xbbea3d07	-0.0071483883
74	0x3cc56ddc	0.024100237
75	0x3d1c4bbb	0.03815816
76	0xbdc365d4	-0.095409065
77	0x3dce8975	0.100848116
78	0x3d6af704	0.05736448
79	0x3dfcbf54	0.123411804
80	0xbe4fd8b7	-0.20297514
81	0xbdc5930c	-0.096471876
82	0x3d2924e8	0.041294962
83	0x3d16a8bf	0.036782023
84	0x3ddd7ed0	0.10815203
85	0xbe09291c	-0.13394588
86	0x3e0cdb39	0.13755502
87	0x3e4999b1	0.19687535
88	0xb84de972	-4.909322e-05
89	0xbe34bdc4	-0.17650515
90	0x3a5d054d	0.0008431271
91	0xbb449ab8	-0.0029999446
92	0x3d1ae50b	0.03781609
93	0xbd00a4ef	-0.031407293
94	0xbcd07851	-0.025447996
95	0xbd0485f4	-0.03235431
96	0xbdb4fc34	-0.088371664
97	0xbd956743	-0.07295086
98	0x3d9b84d3	0.075936936
99	0x3e568dc0	0.20952511
100	0xbe56ab59	-0.20963801
101	0xbd6eccde	-0.058300845
102	0x3de836cf	0.11338579
103	0x3ded8758	0.115980804
104	0xbdb5094c	-0.08839664
105	0xbda52839	-0.080643125
106	0xbd0b8f8a	-0.034072436
107	0x3dfeeab2	0.12447108
108	0x3c833125	0.016014645
109	0xbe3b1fcd	-0.1827385
110	0xbd2ace23	-0.041700494
111	0xbddd402e	-0.10803257
112	0xbde2dfb1	-0.11077822
113	0xbd9d3305	-0.07675747
114	0x3e2e0781	0.1699505
115	0x3e30e35c	0.1727423
116	0xbdb7108e	-0.089387044
117	0x3c0b25b7	0.008492879
118	0xbcee1354	-0.02906195
119	0x3e8bb313	0.2728506
120	0x3d0db2da	0.034594394
121	0xbe4bc162	-0.19897988
122	0xbda7c9fd	-0.08192823
123	0x3c968da6	0.01837809
124	0xbc462346	-0.012093371
125	0xbc80588a	-0.015667219
126	0xbda4a257	-0.08038776
127	0xbdd3a5a1	-0.103343256
128	0xbe8a57b9	-0.27020052
129	0xbe23f309	-0.1601068
130	0xbda46ecc	-0.08028945
131	0xbcf1b950	-0.02950731
132	0xbe4a3706	-0.19747552
133	0x3c978950	0.018498093
134	0x3dcef397	0.10105055
135	0x3e8bc92a	0.27301913
136	0xbd0e99f7	-0.0348148
137	0xbc9dd072	-0.019264434
138	0x3d4bc2c6	0.049746297
139	0x3e5ac37f	0.21363638
140	0xbd127a20	-0.035761
141	0xbdb4035f	-0.087897055
142	0x3dc5416e	0.0963162
143	0xbc6d9382	-0.014500501
144	0x398360cd	0.0002505839
145	0xbd96f2c4	-0.073705226
146	0x3c89d032	0.016822908
147	0x3e651fe1	0.22375442
148	0xbdbf7bbe	-0.09349774
149	0x3cd0581f	0.025432644
150	0x3d869193	0.06570735
151	0xbc57379d	-0.013135818
152	0xbbb53245	-0.0055296742
153	0xbce2ec0c	-0.027700447
154	0xbce8a8cb	-0.0284008
155	0xbdce1afa	-0.10063739
156	0xbd224129	-0.039612923
157	0x3d093aa8	0.033503205
158	0xbda75271	-0.08170021
159	0xbe3f821f	-0.18701981
160	0xbe011b40	-0.12608051
161	0xbe96d18f	-0.29456756
162	0xbe150cb9	-0.14555635
163	0x3dea2492	0.114327565
164	0x3e0d05c4	0.1377173
165	0xbd46944d	-0.048481274
166	0xbe0283c5	-0.12745579
167	0x3d46c151	0.048524205
168	0x3e13b05a	0.14422742
169	0x3d9565b4	0.07294789
170	0xbd4deb0d	-0.05027299
171	0x3e16c861	0.14724876
172	0xbdc3a651	-0.09553207
173	0xbd52aa06	-0.05143168
174	0x3df15790	0.11784279
175	0x3d18c352	0.037295647
176	0x3e0c637d	0.13709827
177	0xbd43fd36	-0.047848903
178	0xbcbca200	-0.023026466
179	0xbe61bba0	-0.2204423
180	0x3db41584	0.08793166
181	0x3d83b18d	0.064303495
182	0xbe0c4039	-0.13696374
183	0xbe3803b1	-0.17970158
184	0x3e5a77ba	0.21334735
185	0x3d604b41	0.054759268
186	0xbd446b40	-0.047953844
187	0xbcdb25bf	-0.026751397
188	0x3e2dea9c	0.16984028
189	0xbdd68b12	-0.10475744
190	0x3e3f3511	0.18672587
191	0x3dc8201b	0.09771749
192	0xbe5c6f89	-0.21526922
193	0x3dd60a78	0.104512155
194	0x3d8afe0f	0.06786739
195	0xbc5efc96	-0.013610026
196	0xbe5e3ba7	-0.21702443
197	0xbc395ba5	-0.011313354
198	0xbb920d74	-0.00445717
199	0x3e241bf8	0.16026294
200	0xbc9dc3ad	-0.019258345
201	0xbcc4b175	-0.0240104
202	0x3d205fa4	0.03915371
203	0x3e3b54cf	0.1829407
204	0xbdafe719	-0.08589
205	0xbdb4c0de	-0.08825849
206	0x3a07134d	0.00051527173
207	0x3da59ac5	0.080861606
208	0x3dfbfb83	0.123038314
209	0x3cd2f227	0.025750233
210	0x3cdfb906	0.027309906
211	0xbdc3efa2	-0.09567191
212	0xbc9bee00	-0.019034386
213	0xbd795b83	-0.060878288
214	0x3d8302f8	0.063970506
215	0xbde4c3b1	-0.11170138
216	0xbb8c6cbe	-0.004285424
217	0x3d16f7cf	0.036857422
218	0x3cc0725c	0.02349203
219	0xbd6a7027	-0.057235863
220	0x3e09448e	0.13405058
221	0xbbfd8877	-0.007737215
222	0xbe0a7392	-0.13520649
223	0xbdade059	-0.084900565
224	0xbd0de117	-0.03463849
225	0xbcd6b521	-0.026209416
226	0xbe01a153	-0.12659197
227	0xbb8d3d0a	-0.004310255
228	0x3dd3a414	0.1033403
229	0xbb30af1d	-0.0026959844
230	0xbd8359bf	-0.06413602
231	0x3e2fb71e	0.17159697
232	0xbd434c0f	-0.047679957
233	0xbd9a5b6d	-0.07536969
234	0x3af6d7de	0.0018832644
235	0x3d92f301	0.071752556
236	0x3db8d59b	0.09025117
237	0x3d2679ac	0.04064338
238	0xbe07d9c3	-0.13266663
239	0xbd75693c	-0.059914812
240	0x3d99274c	0.074781984
241	0x3e531b0b	0.20615785
242	0xbd2fecea	-0.04295055
243	0xbe8c9ce7	-0.27463457
244	0x3d910c2e	0.07082401
245	0x3dc29428	0.09500915
246	0xbe68e54b	-0.22743718
247	0xbdecc9fe	-0.115619645
248	0x3e3cc601	0.18434907
249	0xbdd1ebf6	-0.10250084
250	0xbdc79852	-0.0974585
251	0x3d9af8df	0.07567
252	0x3dd62dd6	0.10457961
253	0xbde51505	-0.1118565
254	0x3d3d7a7d	0.046259392
255	0x3e67450c	0.22584933

classifier.0.bias f4 [50]
0	0x3e53f86b	0.20700233
1	0x3ddb4179	0.10705847
2	0xbd541264	-0.05177535
3	0xbdaffec6	-0.08593516
4	0xbc7f9faf	-0.015602036
5	0x3da753df	0.08170294
6	0xbe4371c8	-0.19086373
7	0xbdc076dc	-0.093976706
8	0x3dc1288c	0.09431562
9	0xbc7da3e8	-0.015480973
10	0x3ddb0c1e	0.106956705
11	0xbe50b671	-0.20382096
12	0x3e11cca1	0.14238216
13	0x3e0dd59d	0.13851018
14	0xbd82b4b7	-0.06382125
15	0x3d52d8b1	0.051476184
16	0xbd9d4229	-0.07678635
17	0xbe1a5fb5	-0.15075572
18	0xbe6dc6fd	-0.2322044
19	0x3d4bafa4	0.04972805
20	0xbc142ae9	-0.009043434
21	0x3e235492	0.1595023
22	0x3e497cbf	0.19676493
23	0xbcb91fe4	-0.022598214
24	0xbd595fa3	-0.053069722
25	0xbdcd4bd1	-0.100242265
26	0xbe8cb0d9	-0.27478674
27	0x3d9bd0fe	0.076082215
28	0x3b3f7aaf	0.0029217412
29	0x3e73b746	0.23800382
30	0x3c85a6fa	0.016314972
31	0x3dac6107	0.08416944
32	0x3e5c1be0	0.21495008
33	0xbd21b87d	-0.039482582
34	0xbd829dbb	-0.06377741
35	0x3c703233	0.014660406
36	0x3cf5bebe	0.02999818
37	0x3e8b3f9e	0.27196974
38	0x3d7ca0e9	0.061676893
39	0x3dcd3ab2	0.10020961
40	0xbd09abfd	-0.033611286
41	0x3e872b74	0.2640034
42	0x3d91b84f	0.07115232
43	0x3e16cabc	0.14725775
44	0x3e44e077	0.19226252
45	0xbbfde2b2	-0.0077479715
46	0xbdb5de9d	-0.08880351
47	0x3d503a00	0.050836563
48	0x3d18a8bf	0.037270304
49	0x3e3dc866	0.18533477

classifier.3.weight f4 [10, 50]
0	0xbe8221d0	-0.25416422
1	0xbeb767b3	-0.35821304
2	0xbe8b0a5e	-0.27156347
3	0xbecc2300	-0.39870453
4	0x3e04cee5	0.12969549
5	0xbe6d2eda	-0.23162404
6	0x3b82f485	0.003996434
7	0xbed69a76	-0.4191472
8	0xbe94df6a	-0.290767
9	0x3e1daca3	0.15397887
10	0xbe88be05	-0.26707473
11	0xbeb5d1bd	-0.3551158
12	0xbdd1e95f	-0.1024959
13	0x3e1819e2	0.14853624
14	0x3db819cb	0.089892946
15	0xbec19b00	-0.37813568
16	0xbe7ded27	-0.24797498
17	0xbc7f53cc	-0.015583944
18	0xbe0e4c4f	-0.13896297
19	0x3e350b93	0.17680196
20	0x3dbb3875	0.09141628
21	0xbe48be79	-0.1960391
22	0xbd972800	-0.07380676
23	0x3e0943eb	0.13404815
24	0xbe773225	-0.24140222
25	0xbd870c19	-0.06594104
26	0x3e0d4b72	0.13798311
27	0xbe87d6f8	-0.26531196
28	0x3debe2cf	0.1151787
29	0x3d2f4768	0.042792708
30	0xbe85b86e	-0.2611727
31	0x3e2daa46	0.16959485
32	0xbeeb8ddd	-0.4600667
33	0xbe83bbec	-0.2572931
34	0x3e15b640	0.14620304
35	0x3e2d30e3	0.1691318
36	0x3db2cd8f	0.087306134
37	0xbe991f50	-0.29906702
38	0xbe0fa8e9	-0.14029278
39	0x3d8e13bb	0.06937357
40	0xbdc2400a	-0.09484871
41	0xbddda0a7	-0.10821658
42	0x3dac79c7	0.08421665
43	0x3dd2638d	0.10272894
44	0xbeadd469	-0.3395112
45	0xbea5f2d8	-0.32411838
46	0xbee72033	-0.45141754
47	0xbdfd8f9e	-0.123809084
48	0x3deea3b6	0.11652319
49	0x3e00cd1c	0.12578243
50	0x3d8e9ef7	0.06963914
51	0x3d63dd0b	0.055630725
52	0xbe0baa77	-0.13639246
53	0x3d8cdd55	0.06878153
54	0xbe90af0e	-0.28258556
55	0x3bb4fe05	0.0055234456
56	0xbeb60dd6	-0.3555743
57	0x3d6484af	0.0557906
58	0xbe26e2ee	-0.16297504
59	0xbef6ab1b	-0.48177418
60	0x3e2e055d	0.16994233
61	0xbe8fdaba	-0.28096563
62	0xbe4e4d0e	-0.20146582
63	0x3df592cf	0.11990892
64	0xbda6673a	-0.08125158
65	0xbe8818ee	-0.2658152
66	0x3ba2e494	0.0049710963
67	0xbdda12e1	-0.10648132
68	0xbe8d5f1b	-0.27611622
69	0x3e032af4	0.12809354
70	0xbe984b37	-0.29744884
71	0xbe370dd2	-0.17876366
72	0x3e0bb574	0.13643438
73	0xbe2c60c4	-0.16833788
74	0xbe48dcf7	-0.19615541
75	0xbd927979	-0.07152075
76	0xbeba7dfb	-0.3642424
77	0x3d9aa3d4	0.07550779
78	0xbe89e604	-0.269333
79	0x3db239c8	0.08702427
80	0x3de20fac	0.110381454
81	0xbe0e718e	-0.13910505
82	0x3dbe6d76	0.09298222
83	0xbe50ca2c	-0.20389622
84	0xbe63b7c9	-0.22238077
85	0xbe30d440	-0.17268467
86	0xbe8e319f	-0.27772233
87	0x3e2393d8	0.15974367
88	0x3e2f50e5	0.17120703
89	0x3d6ef239	0.05833647
90	0xbebfbf09	-0.37450436
91	0x3df760a2	0.12078978
92	0xbe900676	-0.2812993
93	0x3ddefdd7	0.1088826
94	0x3e144f29	0.14483322
95	0xbdedaa22	-0.11604716
96	0xbe647c71	-0.22313096
97	0xbe536f43	-0.20647912
98	0x3e3c9b24	0.18418556
99	0xbe58c7fa	-0.21170035
100	0xbe4ff35b	-0.20307676
101	0xbea6045f	-0.3242521
102	0xbe117e8a	-0.14208427
103	0xbe74ec43	-0.23918252
104	0x3d8e440a	0.06946571
105	0x3e3cd439	0.18440332
106	0xbe30819b	-0.1723694
107	0xbdd07f3f	-0.1018052
108	0x3dd75d6b	0.10515865
109	0x3dc4b2c7	0.096044116
110	0xbe446d45	-0.19182308
111	0xbe6fd773	-0.23422031
112	0x3e0bec73	0.13664417
113	0xbe9c8a39	-0.30574206
114	0xbdb41c00	-0.08794403
115	0x3c37634e	0.01119311
116	0x3dc7b5d8	0.09751481
117	0xbe83f424	-0.25772202
118	0xbd9c150a	-0.076212004
119	0x3e3ab96b	0.18234794
120	0xbe76a70d	-0.24087162
121	0x3ca05611	0.01957229
122	0xbe4f776c	-0.202604
123	0x3db460f0	0.08807552
124	0x3e23a062	0.1597915
125	0x3dba02a3	0.09082534
126	0xbe4a75d9	-0.19771518
127	0x3e253297	0.1613258
128	0xbe1eea6b	-0.15519111
129	0x3e2a4916	0.16629443
130	0xbe072624	-0.13198143
131	0x3e174598	0.14772642
132	0xbe5c4019	-0.21508826
133	0x3db9fa1c	0.09080908
134	0x3df678c9	0.12034757
135	0x3e18e07e	0.14929387
136	0xbe279878	-0.16366756
137	0x3e6fd3c1	0.23420621
138	0xbdda8088	-0.10669047
139	0xbe43bb55	-0.1911443
140	0xbe2851fa	-0.16437522
141	0x3e2beca1	0.16789486
142	0xbd1ea54a	-0.03873185
143	0x3e2a30e6	0.16620216
144	0x3e6cae49	0.2311336
145	0xbdfaf480	-0.12253666
146	0xbe92eb1a	-0.28694993
147	0x3e257256	0.16156897
148	0xbe84938e	-0.25893825
149	0xbeaa8a5a	-0.3330868
150	0xbe8e9993	-0.27851543
151	0x3e2cca1a	0.1687397
152	0x3e7ad357	0.24494682
153	0xbdf882ce	-0.12134324
154	0x3e0debfd	0.13859554
155	0x3e62e501	0.2215767
156	0xbe0ad163	-0.13556437
157	0x3e0d0ca9	0.1377436
158	0x3de9e481	0.11420537
159	0xbe13afb1	-0.1442249
160	0xbe849fb6	-0.259031
161	0x3e43861d	0.19094129
162	0xbe1b7b1a	-0.15183678
163	0xbe362c67	-0.17790376
164	0x3e5184fb	0.20460884
165	0x3d937d55	0.072016396
166	0x3dd5e1af	0.10443436
167	0x3de68c3a	0.11257215
168	0xbe3e22a5	-0.18567903
169	0xbe2205cc	-0.15822524
170	0xbe4d9791	-0.20077349
171	0x3e072f43	0.13201623
172	0xbe3fec62	-0.18742517
173	0x3de0bac8	0.10973126
174	0xbd9b956a	-0.07596858
175	0xbde97982	-0.11400129
176	0xbda60144	-0.0810571
177	0x3e3910c4	0.18072802
178	0x3e08ba0d	0.13352223
179	0x3e31dfcc	0.17370528
180	0x3e735490	0.23762727
181	0xbe22f4df	-0.15913723
182	0xbe5b4140	-0.2141161
183	0x3e3e3b7e	0.18577382
184	0xbe4d5b49	-0.20054354
185	0xbdf0de95	-0.11761204
186	0xbe2b6a41	-0.16739751
187	0xbdc71c55	-0.09722201
188	0xbd2b8a02	-0.04187966
189	0xbe96c2d8	-0.2944553
190	0xbda69d88	-0.081355155
191	0xbe728510	-0.23683572
192	0x3d7fa8dd	0.0624169
193	0xbda349ac	-0.07973036
194	0x3b147350	0.002265174
195	0xbe63ef5f	-0.22259282
196	0xbe5e1d8b	-0.21690957
197	0x3ca178a8	0.019710854
198	0xbe9d3cd7	-0.3071048
199	0xbe6ad1b9	-0.22931565
200	0x3d55105c	0.052017555
201	0xbe8e446b	-0.27786574
202	0xbc2e2fc2	-0.010631504
203	0xbd0a0659	-0.03369746
204	0xbe4e0d71	-0.20122315
205	0x3e2b5c14	0.16734344
206	0x3e035457	0.12825142
207	0xbdcbb4ae	-0.09946571
208	0xbe86498d	-0.2622799
209	0x3da91d68	0.08257562
210	0x3e0caf89	0.13738836
211	0x3db9e6c5	0.09077219
212	0x3e2f19b0	0.17099643
213	0xbe0421cd	-0.12903519
214	0xbeb7eb9d	-0.35921946
215	0xbe19a1dd	-0.15003152
216	0xbec42dc1	-0.38316157
217	0xbe9bb928	-0.304147
218	0x3e17615d	0.14783235
219	0xbdcea5d4	-0.10090223
220	0xbe8086ed	-0.2510294
221	0xbe78598c	-0.2425291
222	0xbe15f83c	-0.14645475
223	0xbe709995	-0.23496087
224	0x3e1e42d9	0.15455188
225	0x3d9a387e	0.07530306
226	0x3d72f382	0.05931426
227	0xbe9821b3	-0.2971321
228	0xbe382767	-0.17983781
229	0x3e180ce0	0.14848661
230	0x3da5e961	0.08101154
231	0xbd28c0f0	-0.041199625
232	0x3e0d169f	0.1377816
233	0x3dbfad9b	0.093592845
234	0x3d207554	0.039174393
235	0xbe9f453e	-0.31107515
236	0xbe5b847f	-0.21437262
237	0xbe1288d2	-0.14310005
238	0x3e3daa3d	0.18521972
239	0xbe0be77d	-0.13662525
240	0x3e0a2a95	0.13492806
241	0x3dfc063b	0.12305876
242	0xbeb17813	-0.34661922
243	0xbdee369d	-0.116315104
244	0xbd9ce7c7	-0.076613955
245	0x3e3b76fd	0.18307109
246	0x3d9b2bec	0.07576737
247	0xbd9d7561	-0.07688404
248	0x3e3c2d3a	0.18376628
249	0x3de7ea89	0.11324031
250	0x3dedf8d3	0.11619725
251	0x3e0b0a8f	0.13578247
252	0x3e329e6f	0.1744325
253	0xbe4d42ec	-0.2004506
254	0xbe15b8c2	-0.14621261
255	0xbe8bddb8	-0.27317595

classifier.3.bias f4 [10]
0	0x3ee7d967	0.45283052
1	0x3ecd0e22	0.40049845
2	0xbe375b6b	-0.17905967
3	0xbd86c548	-0.06580597
4	0xbeb29b31	-0.34884027
5	0xbddd85cb	-0.108165346
6	0xbe117224	-0.14203697
7	0x3e17dfbf	0.14831446
8	0xbe06630b	-0.1312372
9	0xbdab9977	-0.083788805
